{
  "nodes": [
    {
      "op": "null", 
      "name": "data", 
      "inputs": []
    }, 
    {
      "op": "_minus_scalar", 
      "name": "_minusscalar3", 
      "attrs": {"scalar": "0.5"}, 
      "inputs": [[0, 0, 0]]
    }, 
    {
      "op": "_mul_scalar", 
      "name": "_mulscalar267", 
      "attrs": {"scalar": "2"}, 
      "inputs": [[1, 0, 0]]
    }, 
    {
      "op": "Pad", 
      "name": "pad18", 
      "attrs": {
        "mode": "edge", 
        "pad_width": "(0, 0, 0, 0, 2, 2, 2, 2)"
      }, 
      "inputs": [[2, 0, 0]]
    }, 
    {
      "op": "null", 
      "name": "radius_5x5", 
      "inputs": []
    }, 
    {
      "op": "tile", 
      "name": "tile336", 
      "attrs": {"reps": "(4, 3, 1, 1)"}, 
      "inputs": [[4, 0, 0]]
    }, 
    {
      "op": "BlockGrad", 
      "name": "blockgrad424", 
      "inputs": [[5, 0, 0]]
    }, 
    {
      "op": "null", 
      "name": "param_1->1_[5,5]_initialConvs_0_Ord0_radial_(1,1,3,4)_weight", 
      "inputs": []
    }, 
    {
      "op": "broadcast_mul", 
      "name": "broadcast_mul283", 
      "inputs": [[6, 0, 0], [7, 0, 0]]
    }, 
    {
      "op": "null", 
      "name": "param_1->1_[5,5]_initialConvs_0_Ord0_radial_(1,1,3,4)_bias", 
      "inputs": []
    }, 
    {
      "op": "broadcast_add", 
      "name": "broadcast_add265", 
      "inputs": [[8, 0, 0], [9, 0, 0]]
    }, 
    {
      "op": "_mul_scalar", 
      "name": "_mulscalar268", 
      "attrs": {"scalar": "100"}, 
      "inputs": [[10, 0, 0]]
    }, 
    {
      "op": "tanh", 
      "name": "tanh159", 
      "inputs": [[11, 0, 0]]
    }, 
    {
      "op": "elemwise_mul", 
      "name": "_mul159", 
      "inputs": [[10, 0, 0], [12, 0, 0]]
    }, 
    {
      "op": "Concat", 
      "name": "sort_ins1_out1_Re_assm_[5,5]_initialConvs_0", 
      "attrs": {
        "dim": "1", 
        "num_args": "1"
      }, 
      "inputs": [[13, 0, 0]]
    }, 
    {
      "op": "null", 
      "name": "theta_5x5", 
      "inputs": []
    }, 
    {
      "op": "tile", 
      "name": "tile339", 
      "attrs": {"reps": "(4, 3, 1, 1)"}, 
      "inputs": [[15, 0, 0]]
    }, 
    {
      "op": "BlockGrad", 
      "name": "blockgrad427", 
      "inputs": [[16, 0, 0]]
    }, 
    {
      "op": "_mul_scalar", 
      "name": "_mulscalar270", 
      "attrs": {"scalar": "1"}, 
      "inputs": [[17, 0, 0]]
    }, 
    {
      "op": "tile", 
      "name": "tile338", 
      "attrs": {"reps": "(4, 3, 1, 1)"}, 
      "inputs": [[4, 0, 0]]
    }, 
    {
      "op": "BlockGrad", 
      "name": "blockgrad426", 
      "inputs": [[19, 0, 0]]
    }, 
    {
      "op": "null", 
      "name": "param_1->2_[5,5]_initialConvs_0_Ord1_angular_(1,1,3,4)_weight", 
      "inputs": []
    }, 
    {
      "op": "broadcast_mul", 
      "name": "broadcast_mul285", 
      "inputs": [[20, 0, 0], [21, 0, 0]]
    }, 
    {
      "op": "null", 
      "name": "param_1->2_[5,5]_initialConvs_0_Ord1_angular_(1,1,3,4)_bias", 
      "inputs": []
    }, 
    {
      "op": "broadcast_add", 
      "name": "broadcast_add267", 
      "inputs": [[22, 0, 0], [23, 0, 0]]
    }, 
    {
      "op": "elemwise_add", 
      "name": "elemwise_add124", 
      "inputs": [[18, 0, 0], [24, 0, 0]]
    }, 
    {
      "op": "cos", 
      "name": "cos106", 
      "inputs": [[25, 0, 0]]
    }, 
    {
      "op": "ones_like", 
      "name": "ones_like106", 
      "inputs": [[20, 0, 0]]
    }, 
    {
      "op": "broadcast_lesser", 
      "name": "broadcast_lesser106", 
      "inputs": [[20, 0, 0], [27, 0, 0]]
    }, 
    {
      "op": "BlockGrad", 
      "name": "blockgrad428", 
      "inputs": [[28, 0, 0]]
    }, 
    {
      "op": "elemwise_mul", 
      "name": "elemwise_mul443", 
      "inputs": [[26, 0, 0], [29, 0, 0]]
    }, 
    {
      "op": "null", 
      "name": "param_1->2_[5,5]_initialConvs_0_Ord1_radial_(1,1,3,4)_weight", 
      "inputs": []
    }, 
    {
      "op": "broadcast_mul", 
      "name": "broadcast_mul284", 
      "inputs": [[20, 0, 0], [31, 0, 0]]
    }, 
    {
      "op": "null", 
      "name": "param_1->2_[5,5]_initialConvs_0_Ord1_radial_(1,1,3,4)_bias", 
      "inputs": []
    }, 
    {
      "op": "broadcast_add", 
      "name": "broadcast_add266", 
      "inputs": [[32, 0, 0], [33, 0, 0]]
    }, 
    {
      "op": "_mul_scalar", 
      "name": "_mulscalar269", 
      "attrs": {"scalar": "100"}, 
      "inputs": [[34, 0, 0]]
    }, 
    {
      "op": "tanh", 
      "name": "tanh160", 
      "inputs": [[35, 0, 0]]
    }, 
    {
      "op": "elemwise_mul", 
      "name": "_mul160", 
      "inputs": [[34, 0, 0], [36, 0, 0]]
    }, 
    {
      "op": "elemwise_mul", 
      "name": "elemwise_mul445", 
      "inputs": [[30, 0, 0], [37, 0, 0]]
    }, 
    {
      "op": "Concat", 
      "name": "sort_ins1_out2_Re_assm_[5,5]_initialConvs_0", 
      "attrs": {
        "dim": "1", 
        "num_args": "1"
      }, 
      "inputs": [[38, 0, 0]]
    }, 
    {
      "op": "tile", 
      "name": "tile341", 
      "attrs": {"reps": "(4, 3, 1, 1)"}, 
      "inputs": [[15, 0, 0]]
    }, 
    {
      "op": "BlockGrad", 
      "name": "blockgrad430", 
      "inputs": [[40, 0, 0]]
    }, 
    {
      "op": "_mul_scalar", 
      "name": "_mulscalar272", 
      "attrs": {"scalar": "2"}, 
      "inputs": [[41, 0, 0]]
    }, 
    {
      "op": "tile", 
      "name": "tile340", 
      "attrs": {"reps": "(4, 3, 1, 1)"}, 
      "inputs": [[4, 0, 0]]
    }, 
    {
      "op": "BlockGrad", 
      "name": "blockgrad429", 
      "inputs": [[43, 0, 0]]
    }, 
    {
      "op": "null", 
      "name": "param_1->3_[5,5]_initialConvs_0_Ord2_angular_(1,1,3,4)_weight", 
      "inputs": []
    }, 
    {
      "op": "broadcast_mul", 
      "name": "broadcast_mul287", 
      "inputs": [[44, 0, 0], [45, 0, 0]]
    }, 
    {
      "op": "null", 
      "name": "param_1->3_[5,5]_initialConvs_0_Ord2_angular_(1,1,3,4)_bias", 
      "inputs": []
    }, 
    {
      "op": "broadcast_add", 
      "name": "broadcast_add269", 
      "inputs": [[46, 0, 0], [47, 0, 0]]
    }, 
    {
      "op": "elemwise_add", 
      "name": "elemwise_add125", 
      "inputs": [[42, 0, 0], [48, 0, 0]]
    }, 
    {
      "op": "cos", 
      "name": "cos107", 
      "inputs": [[49, 0, 0]]
    }, 
    {
      "op": "ones_like", 
      "name": "ones_like107", 
      "inputs": [[44, 0, 0]]
    }, 
    {
      "op": "broadcast_lesser", 
      "name": "broadcast_lesser107", 
      "inputs": [[44, 0, 0], [51, 0, 0]]
    }, 
    {
      "op": "BlockGrad", 
      "name": "blockgrad431", 
      "inputs": [[52, 0, 0]]
    }, 
    {
      "op": "elemwise_mul", 
      "name": "elemwise_mul447", 
      "inputs": [[50, 0, 0], [53, 0, 0]]
    }, 
    {
      "op": "null", 
      "name": "param_1->3_[5,5]_initialConvs_0_Ord2_radial_(1,1,3,4)_weight", 
      "inputs": []
    }, 
    {
      "op": "broadcast_mul", 
      "name": "broadcast_mul286", 
      "inputs": [[44, 0, 0], [55, 0, 0]]
    }, 
    {
      "op": "null", 
      "name": "param_1->3_[5,5]_initialConvs_0_Ord2_radial_(1,1,3,4)_bias", 
      "inputs": []
    }, 
    {
      "op": "broadcast_add", 
      "name": "broadcast_add268", 
      "inputs": [[56, 0, 0], [57, 0, 0]]
    }, 
    {
      "op": "_mul_scalar", 
      "name": "_mulscalar271", 
      "attrs": {"scalar": "100"}, 
      "inputs": [[58, 0, 0]]
    }, 
    {
      "op": "tanh", 
      "name": "tanh161", 
      "inputs": [[59, 0, 0]]
    }, 
    {
      "op": "elemwise_mul", 
      "name": "_mul161", 
      "inputs": [[58, 0, 0], [60, 0, 0]]
    }, 
    {
      "op": "elemwise_mul", 
      "name": "elemwise_mul449", 
      "inputs": [[54, 0, 0], [61, 0, 0]]
    }, 
    {
      "op": "Concat", 
      "name": "sort_ins1_out3_Re_assm_[5,5]_initialConvs_0", 
      "attrs": {
        "dim": "1", 
        "num_args": "1"
      }, 
      "inputs": [[62, 0, 0]]
    }, 
    {
      "op": "zeros_like", 
      "name": "zeros_like53", 
      "inputs": [[13, 0, 0]]
    }, 
    {
      "op": "Concat", 
      "name": "sort_ins1_out1_Im_assm_[5,5]_initialConvs_0", 
      "attrs": {
        "dim": "1", 
        "num_args": "1"
      }, 
      "inputs": [[64, 0, 0]]
    }, 
    {
      "op": "sin", 
      "name": "sin106", 
      "inputs": [[25, 0, 0]]
    }, 
    {
      "op": "elemwise_mul", 
      "name": "elemwise_mul442", 
      "inputs": [[66, 0, 0], [29, 0, 0]]
    }, 
    {
      "op": "elemwise_mul", 
      "name": "elemwise_mul444", 
      "inputs": [[67, 0, 0], [37, 0, 0]]
    }, 
    {
      "op": "Concat", 
      "name": "sort_ins1_out2_Im_assm_[5,5]_initialConvs_0", 
      "attrs": {
        "dim": "1", 
        "num_args": "1"
      }, 
      "inputs": [[68, 0, 0]]
    }, 
    {
      "op": "sin", 
      "name": "sin107", 
      "inputs": [[49, 0, 0]]
    }, 
    {
      "op": "elemwise_mul", 
      "name": "elemwise_mul446", 
      "inputs": [[70, 0, 0], [53, 0, 0]]
    }, 
    {
      "op": "elemwise_mul", 
      "name": "elemwise_mul448", 
      "inputs": [[71, 0, 0], [61, 0, 0]]
    }, 
    {
      "op": "Concat", 
      "name": "sort_ins1_out3_Im_assm_[5,5]_initialConvs_0", 
      "attrs": {
        "dim": "1", 
        "num_args": "1"
      }, 
      "inputs": [[72, 0, 0]]
    }, 
    {
      "op": "Concat", 
      "name": "assembledFilter_in1_out3_assm_[5,5]_initialConvs_0", 
      "attrs": {
        "dim": "0", 
        "num_args": "6"
      }, 
      "inputs": [[14, 0, 0], [39, 0, 0], [63, 0, 0], [65, 0, 0], [69, 0, 0], [73, 0, 0]]
    }, 
    {
      "op": "Convolution", 
      "name": "conv_[5,5]_initialConvs_0", 
      "attrs": {
        "dilate": "(1, 1)", 
        "kernel": "(5, 5)", 
        "no_bias": "1", 
        "num_filter": "24", 
        "pad": "(0, 0)", 
        "stride": "(1, 1)"
      }, 
      "inputs": [[3, 0, 0], [74, 0, 0]]
    }, 
    {
      "op": "square", 
      "name": "square36", 
      "inputs": [[75, 0, 0]]
    }, 
    {
      "op": "SliceChannel", 
      "name": "split18", 
      "attrs": {
        "axis": "1", 
        "num_outputs": "2"
      }, 
      "inputs": [[76, 0, 0]]
    }, 
    {
      "op": "elemwise_add", 
      "name": "elemwise_add126", 
      "inputs": [[77, 0, 0], [77, 1, 0]]
    }, 
    {
      "op": "_plus_scalar", 
      "name": "_plusscalar55", 
      "attrs": {"scalar": "2e-05"}, 
      "inputs": [[78, 0, 0]]
    }, 
    {
      "op": "sqrt", 
      "name": "sqrt36", 
      "inputs": [[79, 0, 0]]
    }, 
    {
      "op": "square", 
      "name": "square37", 
      "inputs": [[80, 0, 0]]
    }, 
    {
      "op": "_plus_scalar", 
      "name": "_plusscalar57", 
      "attrs": {"scalar": "1"}, 
      "inputs": [[81, 0, 0]]
    }, 
    {
      "op": "sqrt", 
      "name": "sqrt37", 
      "inputs": [[82, 0, 0]]
    }, 
    {
      "op": "elemwise_div", 
      "name": "_div36", 
      "inputs": [[80, 0, 0], [83, 0, 0]]
    }, 
    {
      "op": "null", 
      "name": "initialConvs_0_(1,1,12,1)_mag_weight", 
      "inputs": []
    }, 
    {
      "op": "LeakyReLU", 
      "name": "leakyrelu18", 
      "attrs": {
        "act_type": "elu", 
        "slope": "1"
      }, 
      "inputs": [[85, 0, 0]]
    }, 
    {
      "op": "_plus_scalar", 
      "name": "_plusscalar56", 
      "attrs": {"scalar": "1"}, 
      "inputs": [[86, 0, 0]]
    }, 
    {
      "op": "broadcast_mul", 
      "name": "broadcast_mul288", 
      "inputs": [[84, 0, 0], [87, 0, 0]]
    }, 
    {
      "op": "elemwise_div", 
      "name": "_div37", 
      "inputs": [[88, 0, 0], [80, 0, 0]]
    }, 
    {
      "op": "tile", 
      "name": "tile342", 
      "attrs": {"reps": "(1, 2, 1, 1)"}, 
      "inputs": [[89, 0, 0]]
    }, 
    {
      "op": "elemwise_mul", 
      "name": "elemwise_mul450", 
      "inputs": [[75, 0, 0], [90, 0, 0]]
    }, 
    {
      "op": "Pad", 
      "name": "pad19", 
      "attrs": {
        "mode": "edge", 
        "pad_width": "(0, 0, 0, 0, 1, 1, 1, 1)"
      }, 
      "inputs": [[91, 0, 0]]
    }, 
    {
      "op": "null", 
      "name": "radius_3x3", 
      "inputs": []
    }, 
    {
      "op": "tile", 
      "name": "tile343", 
      "attrs": {"reps": "(6, 4, 1, 1)"}, 
      "inputs": [[93, 0, 0]]
    }, 
    {
      "op": "BlockGrad", 
      "name": "blockgrad432", 
      "inputs": [[94, 0, 0]]
    }, 
    {
      "op": "null", 
      "name": "param_1->1_[3,3]_initialConvs_1_Ord0_radial_(1,1,4,6)_weight", 
      "inputs": []
    }, 
    {
      "op": "broadcast_mul", 
      "name": "broadcast_mul289", 
      "inputs": [[95, 0, 0], [96, 0, 0]]
    }, 
    {
      "op": "null", 
      "name": "param_1->1_[3,3]_initialConvs_1_Ord0_radial_(1,1,4,6)_bias", 
      "inputs": []
    }, 
    {
      "op": "broadcast_add", 
      "name": "broadcast_add270", 
      "inputs": [[97, 0, 0], [98, 0, 0]]
    }, 
    {
      "op": "_mul_scalar", 
      "name": "_mulscalar273", 
      "attrs": {"scalar": "100"}, 
      "inputs": [[99, 0, 0]]
    }, 
    {
      "op": "tanh", 
      "name": "tanh162", 
      "inputs": [[100, 0, 0]]
    }, 
    {
      "op": "elemwise_mul", 
      "name": "_mul162", 
      "inputs": [[99, 0, 0], [101, 0, 0]]
    }, 
    {
      "op": "null", 
      "name": "theta_3x3", 
      "inputs": []
    }, 
    {
      "op": "tile", 
      "name": "tile350", 
      "attrs": {"reps": "(6, 4, 1, 1)"}, 
      "inputs": [[103, 0, 0]]
    }, 
    {
      "op": "BlockGrad", 
      "name": "blockgrad441", 
      "inputs": [[104, 0, 0]]
    }, 
    {
      "op": "_mul_scalar", 
      "name": "_mulscalar279", 
      "attrs": {"scalar": "1"}, 
      "inputs": [[105, 0, 0]]
    }, 
    {
      "op": "tile", 
      "name": "tile349", 
      "attrs": {"reps": "(6, 4, 1, 1)"}, 
      "inputs": [[93, 0, 0]]
    }, 
    {
      "op": "BlockGrad", 
      "name": "blockgrad440", 
      "inputs": [[107, 0, 0]]
    }, 
    {
      "op": "null", 
      "name": "param_2->1_[3,3]_initialConvs_1_Ord1_angular_(1,1,4,6)_weight", 
      "inputs": []
    }, 
    {
      "op": "broadcast_mul", 
      "name": "broadcast_mul295", 
      "inputs": [[108, 0, 0], [109, 0, 0]]
    }, 
    {
      "op": "null", 
      "name": "param_2->1_[3,3]_initialConvs_1_Ord1_angular_(1,1,4,6)_bias", 
      "inputs": []
    }, 
    {
      "op": "broadcast_add", 
      "name": "broadcast_add276", 
      "inputs": [[110, 0, 0], [111, 0, 0]]
    }, 
    {
      "op": "elemwise_add", 
      "name": "elemwise_add129", 
      "inputs": [[106, 0, 0], [112, 0, 0]]
    }, 
    {
      "op": "cos", 
      "name": "cos110", 
      "inputs": [[113, 0, 0]]
    }, 
    {
      "op": "ones_like", 
      "name": "ones_like110", 
      "inputs": [[108, 0, 0]]
    }, 
    {
      "op": "broadcast_lesser", 
      "name": "broadcast_lesser110", 
      "inputs": [[108, 0, 0], [115, 0, 0]]
    }, 
    {
      "op": "BlockGrad", 
      "name": "blockgrad442", 
      "inputs": [[116, 0, 0]]
    }, 
    {
      "op": "elemwise_mul", 
      "name": "elemwise_mul460", 
      "inputs": [[114, 0, 0], [117, 0, 0]]
    }, 
    {
      "op": "null", 
      "name": "param_2->1_[3,3]_initialConvs_1_Ord1_radial_(1,1,4,6)_weight", 
      "inputs": []
    }, 
    {
      "op": "broadcast_mul", 
      "name": "broadcast_mul294", 
      "inputs": [[108, 0, 0], [119, 0, 0]]
    }, 
    {
      "op": "null", 
      "name": "param_2->1_[3,3]_initialConvs_1_Ord1_radial_(1,1,4,6)_bias", 
      "inputs": []
    }, 
    {
      "op": "broadcast_add", 
      "name": "broadcast_add275", 
      "inputs": [[120, 0, 0], [121, 0, 0]]
    }, 
    {
      "op": "_mul_scalar", 
      "name": "_mulscalar278", 
      "attrs": {"scalar": "100"}, 
      "inputs": [[122, 0, 0]]
    }, 
    {
      "op": "tanh", 
      "name": "tanh165", 
      "inputs": [[123, 0, 0]]
    }, 
    {
      "op": "elemwise_mul", 
      "name": "_mul165", 
      "inputs": [[122, 0, 0], [124, 0, 0]]
    }, 
    {
      "op": "elemwise_mul", 
      "name": "elemwise_mul462", 
      "inputs": [[118, 0, 0], [125, 0, 0]]
    }, 
    {
      "op": "tile", 
      "name": "tile356", 
      "attrs": {"reps": "(6, 4, 1, 1)"}, 
      "inputs": [[103, 0, 0]]
    }, 
    {
      "op": "BlockGrad", 
      "name": "blockgrad449", 
      "inputs": [[127, 0, 0]]
    }, 
    {
      "op": "_mul_scalar", 
      "name": "_mulscalar284", 
      "attrs": {"scalar": "2"}, 
      "inputs": [[128, 0, 0]]
    }, 
    {
      "op": "tile", 
      "name": "tile355", 
      "attrs": {"reps": "(6, 4, 1, 1)"}, 
      "inputs": [[93, 0, 0]]
    }, 
    {
      "op": "BlockGrad", 
      "name": "blockgrad448", 
      "inputs": [[130, 0, 0]]
    }, 
    {
      "op": "null", 
      "name": "param_3->1_[3,3]_initialConvs_1_Ord2_angular_(1,1,4,6)_weight", 
      "inputs": []
    }, 
    {
      "op": "broadcast_mul", 
      "name": "broadcast_mul300", 
      "inputs": [[131, 0, 0], [132, 0, 0]]
    }, 
    {
      "op": "null", 
      "name": "param_3->1_[3,3]_initialConvs_1_Ord2_angular_(1,1,4,6)_bias", 
      "inputs": []
    }, 
    {
      "op": "broadcast_add", 
      "name": "broadcast_add281", 
      "inputs": [[133, 0, 0], [134, 0, 0]]
    }, 
    {
      "op": "elemwise_add", 
      "name": "elemwise_add131", 
      "inputs": [[129, 0, 0], [135, 0, 0]]
    }, 
    {
      "op": "cos", 
      "name": "cos112", 
      "inputs": [[136, 0, 0]]
    }, 
    {
      "op": "ones_like", 
      "name": "ones_like112", 
      "inputs": [[131, 0, 0]]
    }, 
    {
      "op": "broadcast_lesser", 
      "name": "broadcast_lesser112", 
      "inputs": [[131, 0, 0], [138, 0, 0]]
    }, 
    {
      "op": "BlockGrad", 
      "name": "blockgrad450", 
      "inputs": [[139, 0, 0]]
    }, 
    {
      "op": "elemwise_mul", 
      "name": "elemwise_mul468", 
      "inputs": [[137, 0, 0], [140, 0, 0]]
    }, 
    {
      "op": "null", 
      "name": "param_3->1_[3,3]_initialConvs_1_Ord2_radial_(1,1,4,6)_weight", 
      "inputs": []
    }, 
    {
      "op": "broadcast_mul", 
      "name": "broadcast_mul299", 
      "inputs": [[131, 0, 0], [142, 0, 0]]
    }, 
    {
      "op": "null", 
      "name": "param_3->1_[3,3]_initialConvs_1_Ord2_radial_(1,1,4,6)_bias", 
      "inputs": []
    }, 
    {
      "op": "broadcast_add", 
      "name": "broadcast_add280", 
      "inputs": [[143, 0, 0], [144, 0, 0]]
    }, 
    {
      "op": "_mul_scalar", 
      "name": "_mulscalar283", 
      "attrs": {"scalar": "100"}, 
      "inputs": [[145, 0, 0]]
    }, 
    {
      "op": "tanh", 
      "name": "tanh168", 
      "inputs": [[146, 0, 0]]
    }, 
    {
      "op": "elemwise_mul", 
      "name": "_mul168", 
      "inputs": [[145, 0, 0], [147, 0, 0]]
    }, 
    {
      "op": "elemwise_mul", 
      "name": "elemwise_mul470", 
      "inputs": [[141, 0, 0], [148, 0, 0]]
    }, 
    {
      "op": "Concat", 
      "name": "sort_ins3_out1_Re_assm_[3,3]_initialConvs_1", 
      "attrs": {
        "dim": "1", 
        "num_args": "3"
      }, 
      "inputs": [[102, 0, 0], [126, 0, 0], [149, 0, 0]]
    }, 
    {
      "op": "zeros_like", 
      "name": "zeros_like54", 
      "inputs": [[102, 0, 0]]
    }, 
    {
      "op": "sin", 
      "name": "sin110", 
      "inputs": [[113, 0, 0]]
    }, 
    {
      "op": "elemwise_mul", 
      "name": "elemwise_mul459", 
      "inputs": [[152, 0, 0], [117, 0, 0]]
    }, 
    {
      "op": "elemwise_mul", 
      "name": "elemwise_mul461", 
      "inputs": [[153, 0, 0], [125, 0, 0]]
    }, 
    {
      "op": "negative", 
      "name": "negative105", 
      "inputs": [[154, 0, 0]]
    }, 
    {
      "op": "sin", 
      "name": "sin112", 
      "inputs": [[136, 0, 0]]
    }, 
    {
      "op": "elemwise_mul", 
      "name": "elemwise_mul467", 
      "inputs": [[156, 0, 0], [140, 0, 0]]
    }, 
    {
      "op": "elemwise_mul", 
      "name": "elemwise_mul469", 
      "inputs": [[157, 0, 0], [148, 0, 0]]
    }, 
    {
      "op": "negative", 
      "name": "negative106", 
      "inputs": [[158, 0, 0]]
    }, 
    {
      "op": "Concat", 
      "name": "sort_ins3_out1_Im_assm_[3,3]_initialConvs_1", 
      "attrs": {
        "dim": "1", 
        "num_args": "3"
      }, 
      "inputs": [[151, 0, 0], [155, 0, 0], [159, 0, 0]]
    }, 
    {
      "op": "Concat", 
      "name": "ReIm_ins3_out1_assm_[3,3]_initialConvs_1", 
      "attrs": {
        "dim": "1", 
        "num_args": "2"
      }, 
      "inputs": [[150, 0, 0], [160, 0, 0]]
    }, 
    {
      "op": "tile", 
      "name": "tile346", 
      "attrs": {"reps": "(10, 4, 1, 1)"}, 
      "inputs": [[103, 0, 0]]
    }, 
    {
      "op": "BlockGrad", 
      "name": "blockgrad435", 
      "inputs": [[162, 0, 0]]
    }, 
    {
      "op": "_mul_scalar", 
      "name": "_mulscalar275", 
      "attrs": {"scalar": "1"}, 
      "inputs": [[163, 0, 0]]
    }, 
    {
      "op": "tile", 
      "name": "tile345", 
      "attrs": {"reps": "(10, 4, 1, 1)"}, 
      "inputs": [[93, 0, 0]]
    }, 
    {
      "op": "BlockGrad", 
      "name": "blockgrad434", 
      "inputs": [[165, 0, 0]]
    }, 
    {
      "op": "null", 
      "name": "param_1->2_[3,3]_initialConvs_1_Ord1_angular_(1,1,4,10)_weight", 
      "inputs": []
    }, 
    {
      "op": "broadcast_mul", 
      "name": "broadcast_mul291", 
      "inputs": [[166, 0, 0], [167, 0, 0]]
    }, 
    {
      "op": "null", 
      "name": "param_1->2_[3,3]_initialConvs_1_Ord1_angular_(1,1,4,10)_bias", 
      "inputs": []
    }, 
    {
      "op": "broadcast_add", 
      "name": "broadcast_add272", 
      "inputs": [[168, 0, 0], [169, 0, 0]]
    }, 
    {
      "op": "elemwise_add", 
      "name": "elemwise_add127", 
      "inputs": [[164, 0, 0], [170, 0, 0]]
    }, 
    {
      "op": "cos", 
      "name": "cos108", 
      "inputs": [[171, 0, 0]]
    }, 
    {
      "op": "ones_like", 
      "name": "ones_like108", 
      "inputs": [[166, 0, 0]]
    }, 
    {
      "op": "broadcast_lesser", 
      "name": "broadcast_lesser108", 
      "inputs": [[166, 0, 0], [173, 0, 0]]
    }, 
    {
      "op": "BlockGrad", 
      "name": "blockgrad436", 
      "inputs": [[174, 0, 0]]
    }, 
    {
      "op": "elemwise_mul", 
      "name": "elemwise_mul452", 
      "inputs": [[172, 0, 0], [175, 0, 0]]
    }, 
    {
      "op": "null", 
      "name": "param_1->2_[3,3]_initialConvs_1_Ord1_radial_(1,1,4,10)_weight", 
      "inputs": []
    }, 
    {
      "op": "broadcast_mul", 
      "name": "broadcast_mul290", 
      "inputs": [[166, 0, 0], [177, 0, 0]]
    }, 
    {
      "op": "null", 
      "name": "param_1->2_[3,3]_initialConvs_1_Ord1_radial_(1,1,4,10)_bias", 
      "inputs": []
    }, 
    {
      "op": "broadcast_add", 
      "name": "broadcast_add271", 
      "inputs": [[178, 0, 0], [179, 0, 0]]
    }, 
    {
      "op": "_mul_scalar", 
      "name": "_mulscalar274", 
      "attrs": {"scalar": "100"}, 
      "inputs": [[180, 0, 0]]
    }, 
    {
      "op": "tanh", 
      "name": "tanh163", 
      "inputs": [[181, 0, 0]]
    }, 
    {
      "op": "elemwise_mul", 
      "name": "_mul163", 
      "inputs": [[180, 0, 0], [182, 0, 0]]
    }, 
    {
      "op": "elemwise_mul", 
      "name": "elemwise_mul454", 
      "inputs": [[176, 0, 0], [183, 0, 0]]
    }, 
    {
      "op": "tile", 
      "name": "tile351", 
      "attrs": {"reps": "(10, 4, 1, 1)"}, 
      "inputs": [[93, 0, 0]]
    }, 
    {
      "op": "BlockGrad", 
      "name": "blockgrad443", 
      "inputs": [[185, 0, 0]]
    }, 
    {
      "op": "null", 
      "name": "param_2->2_[3,3]_initialConvs_1_Ord0_radial_(1,1,4,10)_weight", 
      "inputs": []
    }, 
    {
      "op": "broadcast_mul", 
      "name": "broadcast_mul296", 
      "inputs": [[186, 0, 0], [187, 0, 0]]
    }, 
    {
      "op": "null", 
      "name": "param_2->2_[3,3]_initialConvs_1_Ord0_radial_(1,1,4,10)_bias", 
      "inputs": []
    }, 
    {
      "op": "broadcast_add", 
      "name": "broadcast_add277", 
      "inputs": [[188, 0, 0], [189, 0, 0]]
    }, 
    {
      "op": "_mul_scalar", 
      "name": "_mulscalar280", 
      "attrs": {"scalar": "100"}, 
      "inputs": [[190, 0, 0]]
    }, 
    {
      "op": "tanh", 
      "name": "tanh166", 
      "inputs": [[191, 0, 0]]
    }, 
    {
      "op": "elemwise_mul", 
      "name": "_mul166", 
      "inputs": [[190, 0, 0], [192, 0, 0]]
    }, 
    {
      "op": "tile", 
      "name": "tile358", 
      "attrs": {"reps": "(10, 4, 1, 1)"}, 
      "inputs": [[103, 0, 0]]
    }, 
    {
      "op": "BlockGrad", 
      "name": "blockgrad452", 
      "inputs": [[194, 0, 0]]
    }, 
    {
      "op": "_mul_scalar", 
      "name": "_mulscalar286", 
      "attrs": {"scalar": "1"}, 
      "inputs": [[195, 0, 0]]
    }, 
    {
      "op": "tile", 
      "name": "tile357", 
      "attrs": {"reps": "(10, 4, 1, 1)"}, 
      "inputs": [[93, 0, 0]]
    }, 
    {
      "op": "BlockGrad", 
      "name": "blockgrad451", 
      "inputs": [[197, 0, 0]]
    }, 
    {
      "op": "null", 
      "name": "param_3->2_[3,3]_initialConvs_1_Ord1_angular_(1,1,4,10)_weight", 
      "inputs": []
    }, 
    {
      "op": "broadcast_mul", 
      "name": "broadcast_mul302", 
      "inputs": [[198, 0, 0], [199, 0, 0]]
    }, 
    {
      "op": "null", 
      "name": "param_3->2_[3,3]_initialConvs_1_Ord1_angular_(1,1,4,10)_bias", 
      "inputs": []
    }, 
    {
      "op": "broadcast_add", 
      "name": "broadcast_add283", 
      "inputs": [[200, 0, 0], [201, 0, 0]]
    }, 
    {
      "op": "elemwise_add", 
      "name": "elemwise_add132", 
      "inputs": [[196, 0, 0], [202, 0, 0]]
    }, 
    {
      "op": "cos", 
      "name": "cos113", 
      "inputs": [[203, 0, 0]]
    }, 
    {
      "op": "ones_like", 
      "name": "ones_like113", 
      "inputs": [[198, 0, 0]]
    }, 
    {
      "op": "broadcast_lesser", 
      "name": "broadcast_lesser113", 
      "inputs": [[198, 0, 0], [205, 0, 0]]
    }, 
    {
      "op": "BlockGrad", 
      "name": "blockgrad453", 
      "inputs": [[206, 0, 0]]
    }, 
    {
      "op": "elemwise_mul", 
      "name": "elemwise_mul472", 
      "inputs": [[204, 0, 0], [207, 0, 0]]
    }, 
    {
      "op": "null", 
      "name": "param_3->2_[3,3]_initialConvs_1_Ord1_radial_(1,1,4,10)_weight", 
      "inputs": []
    }, 
    {
      "op": "broadcast_mul", 
      "name": "broadcast_mul301", 
      "inputs": [[198, 0, 0], [209, 0, 0]]
    }, 
    {
      "op": "null", 
      "name": "param_3->2_[3,3]_initialConvs_1_Ord1_radial_(1,1,4,10)_bias", 
      "inputs": []
    }, 
    {
      "op": "broadcast_add", 
      "name": "broadcast_add282", 
      "inputs": [[210, 0, 0], [211, 0, 0]]
    }, 
    {
      "op": "_mul_scalar", 
      "name": "_mulscalar285", 
      "attrs": {"scalar": "100"}, 
      "inputs": [[212, 0, 0]]
    }, 
    {
      "op": "tanh", 
      "name": "tanh169", 
      "inputs": [[213, 0, 0]]
    }, 
    {
      "op": "elemwise_mul", 
      "name": "_mul169", 
      "inputs": [[212, 0, 0], [214, 0, 0]]
    }, 
    {
      "op": "elemwise_mul", 
      "name": "elemwise_mul474", 
      "inputs": [[208, 0, 0], [215, 0, 0]]
    }, 
    {
      "op": "Concat", 
      "name": "sort_ins3_out2_Re_assm_[3,3]_initialConvs_1", 
      "attrs": {
        "dim": "1", 
        "num_args": "3"
      }, 
      "inputs": [[184, 0, 0], [193, 0, 0], [216, 0, 0]]
    }, 
    {
      "op": "sin", 
      "name": "sin108", 
      "inputs": [[171, 0, 0]]
    }, 
    {
      "op": "elemwise_mul", 
      "name": "elemwise_mul451", 
      "inputs": [[218, 0, 0], [175, 0, 0]]
    }, 
    {
      "op": "elemwise_mul", 
      "name": "elemwise_mul453", 
      "inputs": [[219, 0, 0], [183, 0, 0]]
    }, 
    {
      "op": "zeros_like", 
      "name": "zeros_like55", 
      "inputs": [[193, 0, 0]]
    }, 
    {
      "op": "sin", 
      "name": "sin113", 
      "inputs": [[203, 0, 0]]
    }, 
    {
      "op": "elemwise_mul", 
      "name": "elemwise_mul471", 
      "inputs": [[222, 0, 0], [207, 0, 0]]
    }, 
    {
      "op": "elemwise_mul", 
      "name": "elemwise_mul473", 
      "inputs": [[223, 0, 0], [215, 0, 0]]
    }, 
    {
      "op": "negative", 
      "name": "negative108", 
      "inputs": [[224, 0, 0]]
    }, 
    {
      "op": "Concat", 
      "name": "sort_ins3_out2_Im_assm_[3,3]_initialConvs_1", 
      "attrs": {
        "dim": "1", 
        "num_args": "3"
      }, 
      "inputs": [[220, 0, 0], [221, 0, 0], [225, 0, 0]]
    }, 
    {
      "op": "Concat", 
      "name": "ReIm_ins3_out2_assm_[3,3]_initialConvs_1", 
      "attrs": {
        "dim": "1", 
        "num_args": "2"
      }, 
      "inputs": [[217, 0, 0], [226, 0, 0]]
    }, 
    {
      "op": "tile", 
      "name": "tile348", 
      "attrs": {"reps": "(5, 4, 1, 1)"}, 
      "inputs": [[103, 0, 0]]
    }, 
    {
      "op": "BlockGrad", 
      "name": "blockgrad438", 
      "inputs": [[228, 0, 0]]
    }, 
    {
      "op": "_mul_scalar", 
      "name": "_mulscalar277", 
      "attrs": {"scalar": "2"}, 
      "inputs": [[229, 0, 0]]
    }, 
    {
      "op": "tile", 
      "name": "tile347", 
      "attrs": {"reps": "(5, 4, 1, 1)"}, 
      "inputs": [[93, 0, 0]]
    }, 
    {
      "op": "BlockGrad", 
      "name": "blockgrad437", 
      "inputs": [[231, 0, 0]]
    }, 
    {
      "op": "null", 
      "name": "param_1->3_[3,3]_initialConvs_1_Ord2_angular_(1,1,4,5)_weight", 
      "inputs": []
    }, 
    {
      "op": "broadcast_mul", 
      "name": "broadcast_mul293", 
      "inputs": [[232, 0, 0], [233, 0, 0]]
    }, 
    {
      "op": "null", 
      "name": "param_1->3_[3,3]_initialConvs_1_Ord2_angular_(1,1,4,5)_bias", 
      "inputs": []
    }, 
    {
      "op": "broadcast_add", 
      "name": "broadcast_add274", 
      "inputs": [[234, 0, 0], [235, 0, 0]]
    }, 
    {
      "op": "elemwise_add", 
      "name": "elemwise_add128", 
      "inputs": [[230, 0, 0], [236, 0, 0]]
    }, 
    {
      "op": "cos", 
      "name": "cos109", 
      "inputs": [[237, 0, 0]]
    }, 
    {
      "op": "ones_like", 
      "name": "ones_like109", 
      "inputs": [[232, 0, 0]]
    }, 
    {
      "op": "broadcast_lesser", 
      "name": "broadcast_lesser109", 
      "inputs": [[232, 0, 0], [239, 0, 0]]
    }, 
    {
      "op": "BlockGrad", 
      "name": "blockgrad439", 
      "inputs": [[240, 0, 0]]
    }, 
    {
      "op": "elemwise_mul", 
      "name": "elemwise_mul456", 
      "inputs": [[238, 0, 0], [241, 0, 0]]
    }, 
    {
      "op": "null", 
      "name": "param_1->3_[3,3]_initialConvs_1_Ord2_radial_(1,1,4,5)_weight", 
      "inputs": []
    }, 
    {
      "op": "broadcast_mul", 
      "name": "broadcast_mul292", 
      "inputs": [[232, 0, 0], [243, 0, 0]]
    }, 
    {
      "op": "null", 
      "name": "param_1->3_[3,3]_initialConvs_1_Ord2_radial_(1,1,4,5)_bias", 
      "inputs": []
    }, 
    {
      "op": "broadcast_add", 
      "name": "broadcast_add273", 
      "inputs": [[244, 0, 0], [245, 0, 0]]
    }, 
    {
      "op": "_mul_scalar", 
      "name": "_mulscalar276", 
      "attrs": {"scalar": "100"}, 
      "inputs": [[246, 0, 0]]
    }, 
    {
      "op": "tanh", 
      "name": "tanh164", 
      "inputs": [[247, 0, 0]]
    }, 
    {
      "op": "elemwise_mul", 
      "name": "_mul164", 
      "inputs": [[246, 0, 0], [248, 0, 0]]
    }, 
    {
      "op": "elemwise_mul", 
      "name": "elemwise_mul458", 
      "inputs": [[242, 0, 0], [249, 0, 0]]
    }, 
    {
      "op": "tile", 
      "name": "tile354", 
      "attrs": {"reps": "(5, 4, 1, 1)"}, 
      "inputs": [[103, 0, 0]]
    }, 
    {
      "op": "BlockGrad", 
      "name": "blockgrad446", 
      "inputs": [[251, 0, 0]]
    }, 
    {
      "op": "_mul_scalar", 
      "name": "_mulscalar282", 
      "attrs": {"scalar": "1"}, 
      "inputs": [[252, 0, 0]]
    }, 
    {
      "op": "tile", 
      "name": "tile353", 
      "attrs": {"reps": "(5, 4, 1, 1)"}, 
      "inputs": [[93, 0, 0]]
    }, 
    {
      "op": "BlockGrad", 
      "name": "blockgrad445", 
      "inputs": [[254, 0, 0]]
    }, 
    {
      "op": "null", 
      "name": "param_2->3_[3,3]_initialConvs_1_Ord1_angular_(1,1,4,5)_weight", 
      "inputs": []
    }, 
    {
      "op": "broadcast_mul", 
      "name": "broadcast_mul298", 
      "inputs": [[255, 0, 0], [256, 0, 0]]
    }, 
    {
      "op": "null", 
      "name": "param_2->3_[3,3]_initialConvs_1_Ord1_angular_(1,1,4,5)_bias", 
      "inputs": []
    }, 
    {
      "op": "broadcast_add", 
      "name": "broadcast_add279", 
      "inputs": [[257, 0, 0], [258, 0, 0]]
    }, 
    {
      "op": "elemwise_add", 
      "name": "elemwise_add130", 
      "inputs": [[253, 0, 0], [259, 0, 0]]
    }, 
    {
      "op": "cos", 
      "name": "cos111", 
      "inputs": [[260, 0, 0]]
    }, 
    {
      "op": "ones_like", 
      "name": "ones_like111", 
      "inputs": [[255, 0, 0]]
    }, 
    {
      "op": "broadcast_lesser", 
      "name": "broadcast_lesser111", 
      "inputs": [[255, 0, 0], [262, 0, 0]]
    }, 
    {
      "op": "BlockGrad", 
      "name": "blockgrad447", 
      "inputs": [[263, 0, 0]]
    }, 
    {
      "op": "elemwise_mul", 
      "name": "elemwise_mul464", 
      "inputs": [[261, 0, 0], [264, 0, 0]]
    }, 
    {
      "op": "null", 
      "name": "param_2->3_[3,3]_initialConvs_1_Ord1_radial_(1,1,4,5)_weight", 
      "inputs": []
    }, 
    {
      "op": "broadcast_mul", 
      "name": "broadcast_mul297", 
      "inputs": [[255, 0, 0], [266, 0, 0]]
    }, 
    {
      "op": "null", 
      "name": "param_2->3_[3,3]_initialConvs_1_Ord1_radial_(1,1,4,5)_bias", 
      "inputs": []
    }, 
    {
      "op": "broadcast_add", 
      "name": "broadcast_add278", 
      "inputs": [[267, 0, 0], [268, 0, 0]]
    }, 
    {
      "op": "_mul_scalar", 
      "name": "_mulscalar281", 
      "attrs": {"scalar": "100"}, 
      "inputs": [[269, 0, 0]]
    }, 
    {
      "op": "tanh", 
      "name": "tanh167", 
      "inputs": [[270, 0, 0]]
    }, 
    {
      "op": "elemwise_mul", 
      "name": "_mul167", 
      "inputs": [[269, 0, 0], [271, 0, 0]]
    }, 
    {
      "op": "elemwise_mul", 
      "name": "elemwise_mul466", 
      "inputs": [[265, 0, 0], [272, 0, 0]]
    }, 
    {
      "op": "tile", 
      "name": "tile359", 
      "attrs": {"reps": "(5, 4, 1, 1)"}, 
      "inputs": [[93, 0, 0]]
    }, 
    {
      "op": "BlockGrad", 
      "name": "blockgrad454", 
      "inputs": [[274, 0, 0]]
    }, 
    {
      "op": "null", 
      "name": "param_3->3_[3,3]_initialConvs_1_Ord0_radial_(1,1,4,5)_weight", 
      "inputs": []
    }, 
    {
      "op": "broadcast_mul", 
      "name": "broadcast_mul303", 
      "inputs": [[275, 0, 0], [276, 0, 0]]
    }, 
    {
      "op": "null", 
      "name": "param_3->3_[3,3]_initialConvs_1_Ord0_radial_(1,1,4,5)_bias", 
      "inputs": []
    }, 
    {
      "op": "broadcast_add", 
      "name": "broadcast_add284", 
      "inputs": [[277, 0, 0], [278, 0, 0]]
    }, 
    {
      "op": "_mul_scalar", 
      "name": "_mulscalar287", 
      "attrs": {"scalar": "100"}, 
      "inputs": [[279, 0, 0]]
    }, 
    {
      "op": "tanh", 
      "name": "tanh170", 
      "inputs": [[280, 0, 0]]
    }, 
    {
      "op": "elemwise_mul", 
      "name": "_mul170", 
      "inputs": [[279, 0, 0], [281, 0, 0]]
    }, 
    {
      "op": "Concat", 
      "name": "sort_ins3_out3_Re_assm_[3,3]_initialConvs_1", 
      "attrs": {
        "dim": "1", 
        "num_args": "3"
      }, 
      "inputs": [[250, 0, 0], [273, 0, 0], [282, 0, 0]]
    }, 
    {
      "op": "sin", 
      "name": "sin109", 
      "inputs": [[237, 0, 0]]
    }, 
    {
      "op": "elemwise_mul", 
      "name": "elemwise_mul455", 
      "inputs": [[284, 0, 0], [241, 0, 0]]
    }, 
    {
      "op": "elemwise_mul", 
      "name": "elemwise_mul457", 
      "inputs": [[285, 0, 0], [249, 0, 0]]
    }, 
    {
      "op": "sin", 
      "name": "sin111", 
      "inputs": [[260, 0, 0]]
    }, 
    {
      "op": "elemwise_mul", 
      "name": "elemwise_mul463", 
      "inputs": [[287, 0, 0], [264, 0, 0]]
    }, 
    {
      "op": "elemwise_mul", 
      "name": "elemwise_mul465", 
      "inputs": [[288, 0, 0], [272, 0, 0]]
    }, 
    {
      "op": "zeros_like", 
      "name": "zeros_like56", 
      "inputs": [[282, 0, 0]]
    }, 
    {
      "op": "Concat", 
      "name": "sort_ins3_out3_Im_assm_[3,3]_initialConvs_1", 
      "attrs": {
        "dim": "1", 
        "num_args": "3"
      }, 
      "inputs": [[286, 0, 0], [289, 0, 0], [290, 0, 0]]
    }, 
    {
      "op": "Concat", 
      "name": "ReIm_ins3_out3_assm_[3,3]_initialConvs_1", 
      "attrs": {
        "dim": "1", 
        "num_args": "2"
      }, 
      "inputs": [[283, 0, 0], [291, 0, 0]]
    }, 
    {
      "op": "negative", 
      "name": "negative107", 
      "inputs": [[160, 0, 0]]
    }, 
    {
      "op": "Concat", 
      "name": "ImRe_ins3_out1_assm_[3,3]_initialConvs_1", 
      "attrs": {
        "dim": "1", 
        "num_args": "2"
      }, 
      "inputs": [[293, 0, 0], [150, 0, 0]]
    }, 
    {
      "op": "negative", 
      "name": "negative109", 
      "inputs": [[226, 0, 0]]
    }, 
    {
      "op": "Concat", 
      "name": "ImRe_ins3_out2_assm_[3,3]_initialConvs_1", 
      "attrs": {
        "dim": "1", 
        "num_args": "2"
      }, 
      "inputs": [[295, 0, 0], [217, 0, 0]]
    }, 
    {
      "op": "negative", 
      "name": "negative110", 
      "inputs": [[291, 0, 0]]
    }, 
    {
      "op": "Concat", 
      "name": "ImRe_ins3_out3_assm_[3,3]_initialConvs_1", 
      "attrs": {
        "dim": "1", 
        "num_args": "2"
      }, 
      "inputs": [[297, 0, 0], [283, 0, 0]]
    }, 
    {
      "op": "Concat", 
      "name": "assembledFilter_in3_out3_assm_[3,3]_initialConvs_1", 
      "attrs": {
        "dim": "0", 
        "num_args": "6"
      }, 
      "inputs": [[161, 0, 0], [227, 0, 0], [292, 0, 0], [294, 0, 0], [296, 0, 0], [298, 0, 0]]
    }, 
    {
      "op": "Convolution", 
      "name": "conv_[3,3]_initialConvs_1", 
      "attrs": {
        "dilate": "(1, 1)", 
        "kernel": "(3, 3)", 
        "no_bias": "1", 
        "num_filter": "42", 
        "pad": "(0, 0)", 
        "stride": "(1, 1)"
      }, 
      "inputs": [[92, 0, 0], [299, 0, 0]]
    }, 
    {
      "op": "square", 
      "name": "square38", 
      "inputs": [[300, 0, 0]]
    }, 
    {
      "op": "SliceChannel", 
      "name": "split19", 
      "attrs": {
        "axis": "1", 
        "num_outputs": "2"
      }, 
      "inputs": [[301, 0, 0]]
    }, 
    {
      "op": "elemwise_add", 
      "name": "elemwise_add133", 
      "inputs": [[302, 0, 0], [302, 1, 0]]
    }, 
    {
      "op": "_plus_scalar", 
      "name": "_plusscalar58", 
      "attrs": {"scalar": "2e-05"}, 
      "inputs": [[303, 0, 0]]
    }, 
    {
      "op": "sqrt", 
      "name": "sqrt38", 
      "inputs": [[304, 0, 0]]
    }, 
    {
      "op": "square", 
      "name": "square39", 
      "inputs": [[305, 0, 0]]
    }, 
    {
      "op": "_plus_scalar", 
      "name": "_plusscalar60", 
      "attrs": {"scalar": "1"}, 
      "inputs": [[306, 0, 0]]
    }, 
    {
      "op": "sqrt", 
      "name": "sqrt39", 
      "inputs": [[307, 0, 0]]
    }, 
    {
      "op": "elemwise_div", 
      "name": "_div38", 
      "inputs": [[305, 0, 0], [308, 0, 0]]
    }, 
    {
      "op": "null", 
      "name": "initialConvs_1_(1,1,21,1)_mag_weight", 
      "inputs": []
    }, 
    {
      "op": "LeakyReLU", 
      "name": "leakyrelu19", 
      "attrs": {
        "act_type": "elu", 
        "slope": "1"
      }, 
      "inputs": [[310, 0, 0]]
    }, 
    {
      "op": "_plus_scalar", 
      "name": "_plusscalar59", 
      "attrs": {"scalar": "1"}, 
      "inputs": [[311, 0, 0]]
    }, 
    {
      "op": "broadcast_mul", 
      "name": "broadcast_mul304", 
      "inputs": [[309, 0, 0], [312, 0, 0]]
    }, 
    {
      "op": "elemwise_div", 
      "name": "_div39", 
      "inputs": [[313, 0, 0], [305, 0, 0]]
    }, 
    {
      "op": "tile", 
      "name": "tile361", 
      "attrs": {"reps": "(1, 2, 1, 1)"}, 
      "inputs": [[314, 0, 0]]
    }, 
    {
      "op": "elemwise_mul", 
      "name": "elemwise_mul475", 
      "inputs": [[300, 0, 0], [315, 0, 0]]
    }, 
    {
      "op": "Pad", 
      "name": "pad20", 
      "attrs": {
        "mode": "edge", 
        "pad_width": "(0, 0, 0, 0, 1, 1, 1, 1)"
      }, 
      "inputs": [[316, 0, 0]]
    }, 
    {
      "op": "tile", 
      "name": "tile362", 
      "attrs": {"reps": "(6, 6, 1, 1)"}, 
      "inputs": [[93, 0, 0]]
    }, 
    {
      "op": "BlockGrad", 
      "name": "blockgrad456", 
      "inputs": [[318, 0, 0]]
    }, 
    {
      "op": "null", 
      "name": "param_1->1_[3,3]_3_1_s44_Ord0_radial_(1,1,6,6)_weight", 
      "inputs": []
    }, 
    {
      "op": "broadcast_mul", 
      "name": "broadcast_mul305", 
      "inputs": [[319, 0, 0], [320, 0, 0]]
    }, 
    {
      "op": "null", 
      "name": "param_1->1_[3,3]_3_1_s44_Ord0_radial_(1,1,6,6)_bias", 
      "inputs": []
    }, 
    {
      "op": "broadcast_add", 
      "name": "broadcast_add285", 
      "inputs": [[321, 0, 0], [322, 0, 0]]
    }, 
    {
      "op": "_mul_scalar", 
      "name": "_mulscalar288", 
      "attrs": {"scalar": "100"}, 
      "inputs": [[323, 0, 0]]
    }, 
    {
      "op": "tanh", 
      "name": "tanh171", 
      "inputs": [[324, 0, 0]]
    }, 
    {
      "op": "elemwise_mul", 
      "name": "_mul171", 
      "inputs": [[323, 0, 0], [325, 0, 0]]
    }, 
    {
      "op": "tile", 
      "name": "tile369", 
      "attrs": {"reps": "(6, 10, 1, 1)"}, 
      "inputs": [[103, 0, 0]]
    }, 
    {
      "op": "BlockGrad", 
      "name": "blockgrad465", 
      "inputs": [[327, 0, 0]]
    }, 
    {
      "op": "_mul_scalar", 
      "name": "_mulscalar294", 
      "attrs": {"scalar": "1"}, 
      "inputs": [[328, 0, 0]]
    }, 
    {
      "op": "tile", 
      "name": "tile368", 
      "attrs": {"reps": "(6, 10, 1, 1)"}, 
      "inputs": [[93, 0, 0]]
    }, 
    {
      "op": "BlockGrad", 
      "name": "blockgrad464", 
      "inputs": [[330, 0, 0]]
    }, 
    {
      "op": "null", 
      "name": "param_2->1_[3,3]_3_1_s44_Ord1_angular_(1,1,10,6)_weight", 
      "inputs": []
    }, 
    {
      "op": "broadcast_mul", 
      "name": "broadcast_mul311", 
      "inputs": [[331, 0, 0], [332, 0, 0]]
    }, 
    {
      "op": "null", 
      "name": "param_2->1_[3,3]_3_1_s44_Ord1_angular_(1,1,10,6)_bias", 
      "inputs": []
    }, 
    {
      "op": "broadcast_add", 
      "name": "broadcast_add291", 
      "inputs": [[333, 0, 0], [334, 0, 0]]
    }, 
    {
      "op": "elemwise_add", 
      "name": "elemwise_add136", 
      "inputs": [[329, 0, 0], [335, 0, 0]]
    }, 
    {
      "op": "cos", 
      "name": "cos116", 
      "inputs": [[336, 0, 0]]
    }, 
    {
      "op": "ones_like", 
      "name": "ones_like116", 
      "inputs": [[331, 0, 0]]
    }, 
    {
      "op": "broadcast_lesser", 
      "name": "broadcast_lesser116", 
      "inputs": [[331, 0, 0], [338, 0, 0]]
    }, 
    {
      "op": "BlockGrad", 
      "name": "blockgrad466", 
      "inputs": [[339, 0, 0]]
    }, 
    {
      "op": "elemwise_mul", 
      "name": "elemwise_mul485", 
      "inputs": [[337, 0, 0], [340, 0, 0]]
    }, 
    {
      "op": "null", 
      "name": "param_2->1_[3,3]_3_1_s44_Ord1_radial_(1,1,10,6)_weight", 
      "inputs": []
    }, 
    {
      "op": "broadcast_mul", 
      "name": "broadcast_mul310", 
      "inputs": [[331, 0, 0], [342, 0, 0]]
    }, 
    {
      "op": "null", 
      "name": "param_2->1_[3,3]_3_1_s44_Ord1_radial_(1,1,10,6)_bias", 
      "inputs": []
    }, 
    {
      "op": "broadcast_add", 
      "name": "broadcast_add290", 
      "inputs": [[343, 0, 0], [344, 0, 0]]
    }, 
    {
      "op": "_mul_scalar", 
      "name": "_mulscalar293", 
      "attrs": {"scalar": "100"}, 
      "inputs": [[345, 0, 0]]
    }, 
    {
      "op": "tanh", 
      "name": "tanh174", 
      "inputs": [[346, 0, 0]]
    }, 
    {
      "op": "elemwise_mul", 
      "name": "_mul174", 
      "inputs": [[345, 0, 0], [347, 0, 0]]
    }, 
    {
      "op": "elemwise_mul", 
      "name": "elemwise_mul487", 
      "inputs": [[341, 0, 0], [348, 0, 0]]
    }, 
    {
      "op": "tile", 
      "name": "tile375", 
      "attrs": {"reps": "(6, 5, 1, 1)"}, 
      "inputs": [[103, 0, 0]]
    }, 
    {
      "op": "BlockGrad", 
      "name": "blockgrad473", 
      "inputs": [[350, 0, 0]]
    }, 
    {
      "op": "_mul_scalar", 
      "name": "_mulscalar299", 
      "attrs": {"scalar": "2"}, 
      "inputs": [[351, 0, 0]]
    }, 
    {
      "op": "tile", 
      "name": "tile374", 
      "attrs": {"reps": "(6, 5, 1, 1)"}, 
      "inputs": [[93, 0, 0]]
    }, 
    {
      "op": "BlockGrad", 
      "name": "blockgrad472", 
      "inputs": [[353, 0, 0]]
    }, 
    {
      "op": "null", 
      "name": "param_3->1_[3,3]_3_1_s44_Ord2_angular_(1,1,5,6)_weight", 
      "inputs": []
    }, 
    {
      "op": "broadcast_mul", 
      "name": "broadcast_mul316", 
      "inputs": [[354, 0, 0], [355, 0, 0]]
    }, 
    {
      "op": "null", 
      "name": "param_3->1_[3,3]_3_1_s44_Ord2_angular_(1,1,5,6)_bias", 
      "inputs": []
    }, 
    {
      "op": "broadcast_add", 
      "name": "broadcast_add296", 
      "inputs": [[356, 0, 0], [357, 0, 0]]
    }, 
    {
      "op": "elemwise_add", 
      "name": "elemwise_add138", 
      "inputs": [[352, 0, 0], [358, 0, 0]]
    }, 
    {
      "op": "cos", 
      "name": "cos118", 
      "inputs": [[359, 0, 0]]
    }, 
    {
      "op": "ones_like", 
      "name": "ones_like118", 
      "inputs": [[354, 0, 0]]
    }, 
    {
      "op": "broadcast_lesser", 
      "name": "broadcast_lesser118", 
      "inputs": [[354, 0, 0], [361, 0, 0]]
    }, 
    {
      "op": "BlockGrad", 
      "name": "blockgrad474", 
      "inputs": [[362, 0, 0]]
    }, 
    {
      "op": "elemwise_mul", 
      "name": "elemwise_mul493", 
      "inputs": [[360, 0, 0], [363, 0, 0]]
    }, 
    {
      "op": "null", 
      "name": "param_3->1_[3,3]_3_1_s44_Ord2_radial_(1,1,5,6)_weight", 
      "inputs": []
    }, 
    {
      "op": "broadcast_mul", 
      "name": "broadcast_mul315", 
      "inputs": [[354, 0, 0], [365, 0, 0]]
    }, 
    {
      "op": "null", 
      "name": "param_3->1_[3,3]_3_1_s44_Ord2_radial_(1,1,5,6)_bias", 
      "inputs": []
    }, 
    {
      "op": "broadcast_add", 
      "name": "broadcast_add295", 
      "inputs": [[366, 0, 0], [367, 0, 0]]
    }, 
    {
      "op": "_mul_scalar", 
      "name": "_mulscalar298", 
      "attrs": {"scalar": "100"}, 
      "inputs": [[368, 0, 0]]
    }, 
    {
      "op": "tanh", 
      "name": "tanh177", 
      "inputs": [[369, 0, 0]]
    }, 
    {
      "op": "elemwise_mul", 
      "name": "_mul177", 
      "inputs": [[368, 0, 0], [370, 0, 0]]
    }, 
    {
      "op": "elemwise_mul", 
      "name": "elemwise_mul495", 
      "inputs": [[364, 0, 0], [371, 0, 0]]
    }, 
    {
      "op": "Concat", 
      "name": "sort_ins3_out1_Re_assm_[3,3]_3_1_s44", 
      "attrs": {
        "dim": "1", 
        "num_args": "3"
      }, 
      "inputs": [[326, 0, 0], [349, 0, 0], [372, 0, 0]]
    }, 
    {
      "op": "zeros_like", 
      "name": "zeros_like57", 
      "inputs": [[326, 0, 0]]
    }, 
    {
      "op": "sin", 
      "name": "sin116", 
      "inputs": [[336, 0, 0]]
    }, 
    {
      "op": "elemwise_mul", 
      "name": "elemwise_mul484", 
      "inputs": [[375, 0, 0], [340, 0, 0]]
    }, 
    {
      "op": "elemwise_mul", 
      "name": "elemwise_mul486", 
      "inputs": [[376, 0, 0], [348, 0, 0]]
    }, 
    {
      "op": "negative", 
      "name": "negative111", 
      "inputs": [[377, 0, 0]]
    }, 
    {
      "op": "sin", 
      "name": "sin118", 
      "inputs": [[359, 0, 0]]
    }, 
    {
      "op": "elemwise_mul", 
      "name": "elemwise_mul492", 
      "inputs": [[379, 0, 0], [363, 0, 0]]
    }, 
    {
      "op": "elemwise_mul", 
      "name": "elemwise_mul494", 
      "inputs": [[380, 0, 0], [371, 0, 0]]
    }, 
    {
      "op": "negative", 
      "name": "negative112", 
      "inputs": [[381, 0, 0]]
    }, 
    {
      "op": "Concat", 
      "name": "sort_ins3_out1_Im_assm_[3,3]_3_1_s44", 
      "attrs": {
        "dim": "1", 
        "num_args": "3"
      }, 
      "inputs": [[374, 0, 0], [378, 0, 0], [382, 0, 0]]
    }, 
    {
      "op": "Concat", 
      "name": "ReIm_ins3_out1_assm_[3,3]_3_1_s44", 
      "attrs": {
        "dim": "1", 
        "num_args": "2"
      }, 
      "inputs": [[373, 0, 0], [383, 0, 0]]
    }, 
    {
      "op": "tile", 
      "name": "tile365", 
      "attrs": {"reps": "(10, 6, 1, 1)"}, 
      "inputs": [[103, 0, 0]]
    }, 
    {
      "op": "BlockGrad", 
      "name": "blockgrad459", 
      "inputs": [[385, 0, 0]]
    }, 
    {
      "op": "_mul_scalar", 
      "name": "_mulscalar290", 
      "attrs": {"scalar": "1"}, 
      "inputs": [[386, 0, 0]]
    }, 
    {
      "op": "tile", 
      "name": "tile364", 
      "attrs": {"reps": "(10, 6, 1, 1)"}, 
      "inputs": [[93, 0, 0]]
    }, 
    {
      "op": "BlockGrad", 
      "name": "blockgrad458", 
      "inputs": [[388, 0, 0]]
    }, 
    {
      "op": "null", 
      "name": "param_1->2_[3,3]_3_1_s44_Ord1_angular_(1,1,6,10)_weight", 
      "inputs": []
    }, 
    {
      "op": "broadcast_mul", 
      "name": "broadcast_mul307", 
      "inputs": [[389, 0, 0], [390, 0, 0]]
    }, 
    {
      "op": "null", 
      "name": "param_1->2_[3,3]_3_1_s44_Ord1_angular_(1,1,6,10)_bias", 
      "inputs": []
    }, 
    {
      "op": "broadcast_add", 
      "name": "broadcast_add287", 
      "inputs": [[391, 0, 0], [392, 0, 0]]
    }, 
    {
      "op": "elemwise_add", 
      "name": "elemwise_add134", 
      "inputs": [[387, 0, 0], [393, 0, 0]]
    }, 
    {
      "op": "cos", 
      "name": "cos114", 
      "inputs": [[394, 0, 0]]
    }, 
    {
      "op": "ones_like", 
      "name": "ones_like114", 
      "inputs": [[389, 0, 0]]
    }, 
    {
      "op": "broadcast_lesser", 
      "name": "broadcast_lesser114", 
      "inputs": [[389, 0, 0], [396, 0, 0]]
    }, 
    {
      "op": "BlockGrad", 
      "name": "blockgrad460", 
      "inputs": [[397, 0, 0]]
    }, 
    {
      "op": "elemwise_mul", 
      "name": "elemwise_mul477", 
      "inputs": [[395, 0, 0], [398, 0, 0]]
    }, 
    {
      "op": "null", 
      "name": "param_1->2_[3,3]_3_1_s44_Ord1_radial_(1,1,6,10)_weight", 
      "inputs": []
    }, 
    {
      "op": "broadcast_mul", 
      "name": "broadcast_mul306", 
      "inputs": [[389, 0, 0], [400, 0, 0]]
    }, 
    {
      "op": "null", 
      "name": "param_1->2_[3,3]_3_1_s44_Ord1_radial_(1,1,6,10)_bias", 
      "inputs": []
    }, 
    {
      "op": "broadcast_add", 
      "name": "broadcast_add286", 
      "inputs": [[401, 0, 0], [402, 0, 0]]
    }, 
    {
      "op": "_mul_scalar", 
      "name": "_mulscalar289", 
      "attrs": {"scalar": "100"}, 
      "inputs": [[403, 0, 0]]
    }, 
    {
      "op": "tanh", 
      "name": "tanh172", 
      "inputs": [[404, 0, 0]]
    }, 
    {
      "op": "elemwise_mul", 
      "name": "_mul172", 
      "inputs": [[403, 0, 0], [405, 0, 0]]
    }, 
    {
      "op": "elemwise_mul", 
      "name": "elemwise_mul479", 
      "inputs": [[399, 0, 0], [406, 0, 0]]
    }, 
    {
      "op": "tile", 
      "name": "tile370", 
      "attrs": {"reps": "(10, 10, 1, 1)"}, 
      "inputs": [[93, 0, 0]]
    }, 
    {
      "op": "BlockGrad", 
      "name": "blockgrad467", 
      "inputs": [[408, 0, 0]]
    }, 
    {
      "op": "null", 
      "name": "param_2->2_[3,3]_3_1_s44_Ord0_radial_(1,1,10,10)_weight", 
      "inputs": []
    }, 
    {
      "op": "broadcast_mul", 
      "name": "broadcast_mul312", 
      "inputs": [[409, 0, 0], [410, 0, 0]]
    }, 
    {
      "op": "null", 
      "name": "param_2->2_[3,3]_3_1_s44_Ord0_radial_(1,1,10,10)_bias", 
      "inputs": []
    }, 
    {
      "op": "broadcast_add", 
      "name": "broadcast_add292", 
      "inputs": [[411, 0, 0], [412, 0, 0]]
    }, 
    {
      "op": "_mul_scalar", 
      "name": "_mulscalar295", 
      "attrs": {"scalar": "100"}, 
      "inputs": [[413, 0, 0]]
    }, 
    {
      "op": "tanh", 
      "name": "tanh175", 
      "inputs": [[414, 0, 0]]
    }, 
    {
      "op": "elemwise_mul", 
      "name": "_mul175", 
      "inputs": [[413, 0, 0], [415, 0, 0]]
    }, 
    {
      "op": "tile", 
      "name": "tile377", 
      "attrs": {"reps": "(10, 5, 1, 1)"}, 
      "inputs": [[103, 0, 0]]
    }, 
    {
      "op": "BlockGrad", 
      "name": "blockgrad476", 
      "inputs": [[417, 0, 0]]
    }, 
    {
      "op": "_mul_scalar", 
      "name": "_mulscalar301", 
      "attrs": {"scalar": "1"}, 
      "inputs": [[418, 0, 0]]
    }, 
    {
      "op": "tile", 
      "name": "tile376", 
      "attrs": {"reps": "(10, 5, 1, 1)"}, 
      "inputs": [[93, 0, 0]]
    }, 
    {
      "op": "BlockGrad", 
      "name": "blockgrad475", 
      "inputs": [[420, 0, 0]]
    }, 
    {
      "op": "null", 
      "name": "param_3->2_[3,3]_3_1_s44_Ord1_angular_(1,1,5,10)_weight", 
      "inputs": []
    }, 
    {
      "op": "broadcast_mul", 
      "name": "broadcast_mul318", 
      "inputs": [[421, 0, 0], [422, 0, 0]]
    }, 
    {
      "op": "null", 
      "name": "param_3->2_[3,3]_3_1_s44_Ord1_angular_(1,1,5,10)_bias", 
      "inputs": []
    }, 
    {
      "op": "broadcast_add", 
      "name": "broadcast_add298", 
      "inputs": [[423, 0, 0], [424, 0, 0]]
    }, 
    {
      "op": "elemwise_add", 
      "name": "elemwise_add139", 
      "inputs": [[419, 0, 0], [425, 0, 0]]
    }, 
    {
      "op": "cos", 
      "name": "cos119", 
      "inputs": [[426, 0, 0]]
    }, 
    {
      "op": "ones_like", 
      "name": "ones_like119", 
      "inputs": [[421, 0, 0]]
    }, 
    {
      "op": "broadcast_lesser", 
      "name": "broadcast_lesser119", 
      "inputs": [[421, 0, 0], [428, 0, 0]]
    }, 
    {
      "op": "BlockGrad", 
      "name": "blockgrad477", 
      "inputs": [[429, 0, 0]]
    }, 
    {
      "op": "elemwise_mul", 
      "name": "elemwise_mul497", 
      "inputs": [[427, 0, 0], [430, 0, 0]]
    }, 
    {
      "op": "null", 
      "name": "param_3->2_[3,3]_3_1_s44_Ord1_radial_(1,1,5,10)_weight", 
      "inputs": []
    }, 
    {
      "op": "broadcast_mul", 
      "name": "broadcast_mul317", 
      "inputs": [[421, 0, 0], [432, 0, 0]]
    }, 
    {
      "op": "null", 
      "name": "param_3->2_[3,3]_3_1_s44_Ord1_radial_(1,1,5,10)_bias", 
      "inputs": []
    }, 
    {
      "op": "broadcast_add", 
      "name": "broadcast_add297", 
      "inputs": [[433, 0, 0], [434, 0, 0]]
    }, 
    {
      "op": "_mul_scalar", 
      "name": "_mulscalar300", 
      "attrs": {"scalar": "100"}, 
      "inputs": [[435, 0, 0]]
    }, 
    {
      "op": "tanh", 
      "name": "tanh178", 
      "inputs": [[436, 0, 0]]
    }, 
    {
      "op": "elemwise_mul", 
      "name": "_mul178", 
      "inputs": [[435, 0, 0], [437, 0, 0]]
    }, 
    {
      "op": "elemwise_mul", 
      "name": "elemwise_mul499", 
      "inputs": [[431, 0, 0], [438, 0, 0]]
    }, 
    {
      "op": "Concat", 
      "name": "sort_ins3_out2_Re_assm_[3,3]_3_1_s44", 
      "attrs": {
        "dim": "1", 
        "num_args": "3"
      }, 
      "inputs": [[407, 0, 0], [416, 0, 0], [439, 0, 0]]
    }, 
    {
      "op": "sin", 
      "name": "sin114", 
      "inputs": [[394, 0, 0]]
    }, 
    {
      "op": "elemwise_mul", 
      "name": "elemwise_mul476", 
      "inputs": [[441, 0, 0], [398, 0, 0]]
    }, 
    {
      "op": "elemwise_mul", 
      "name": "elemwise_mul478", 
      "inputs": [[442, 0, 0], [406, 0, 0]]
    }, 
    {
      "op": "zeros_like", 
      "name": "zeros_like58", 
      "inputs": [[416, 0, 0]]
    }, 
    {
      "op": "sin", 
      "name": "sin119", 
      "inputs": [[426, 0, 0]]
    }, 
    {
      "op": "elemwise_mul", 
      "name": "elemwise_mul496", 
      "inputs": [[445, 0, 0], [430, 0, 0]]
    }, 
    {
      "op": "elemwise_mul", 
      "name": "elemwise_mul498", 
      "inputs": [[446, 0, 0], [438, 0, 0]]
    }, 
    {
      "op": "negative", 
      "name": "negative114", 
      "inputs": [[447, 0, 0]]
    }, 
    {
      "op": "Concat", 
      "name": "sort_ins3_out2_Im_assm_[3,3]_3_1_s44", 
      "attrs": {
        "dim": "1", 
        "num_args": "3"
      }, 
      "inputs": [[443, 0, 0], [444, 0, 0], [448, 0, 0]]
    }, 
    {
      "op": "Concat", 
      "name": "ReIm_ins3_out2_assm_[3,3]_3_1_s44", 
      "attrs": {
        "dim": "1", 
        "num_args": "2"
      }, 
      "inputs": [[440, 0, 0], [449, 0, 0]]
    }, 
    {
      "op": "tile", 
      "name": "tile367", 
      "attrs": {"reps": "(5, 6, 1, 1)"}, 
      "inputs": [[103, 0, 0]]
    }, 
    {
      "op": "BlockGrad", 
      "name": "blockgrad462", 
      "inputs": [[451, 0, 0]]
    }, 
    {
      "op": "_mul_scalar", 
      "name": "_mulscalar292", 
      "attrs": {"scalar": "2"}, 
      "inputs": [[452, 0, 0]]
    }, 
    {
      "op": "tile", 
      "name": "tile366", 
      "attrs": {"reps": "(5, 6, 1, 1)"}, 
      "inputs": [[93, 0, 0]]
    }, 
    {
      "op": "BlockGrad", 
      "name": "blockgrad461", 
      "inputs": [[454, 0, 0]]
    }, 
    {
      "op": "null", 
      "name": "param_1->3_[3,3]_3_1_s44_Ord2_angular_(1,1,6,5)_weight", 
      "inputs": []
    }, 
    {
      "op": "broadcast_mul", 
      "name": "broadcast_mul309", 
      "inputs": [[455, 0, 0], [456, 0, 0]]
    }, 
    {
      "op": "null", 
      "name": "param_1->3_[3,3]_3_1_s44_Ord2_angular_(1,1,6,5)_bias", 
      "inputs": []
    }, 
    {
      "op": "broadcast_add", 
      "name": "broadcast_add289", 
      "inputs": [[457, 0, 0], [458, 0, 0]]
    }, 
    {
      "op": "elemwise_add", 
      "name": "elemwise_add135", 
      "inputs": [[453, 0, 0], [459, 0, 0]]
    }, 
    {
      "op": "cos", 
      "name": "cos115", 
      "inputs": [[460, 0, 0]]
    }, 
    {
      "op": "ones_like", 
      "name": "ones_like115", 
      "inputs": [[455, 0, 0]]
    }, 
    {
      "op": "broadcast_lesser", 
      "name": "broadcast_lesser115", 
      "inputs": [[455, 0, 0], [462, 0, 0]]
    }, 
    {
      "op": "BlockGrad", 
      "name": "blockgrad463", 
      "inputs": [[463, 0, 0]]
    }, 
    {
      "op": "elemwise_mul", 
      "name": "elemwise_mul481", 
      "inputs": [[461, 0, 0], [464, 0, 0]]
    }, 
    {
      "op": "null", 
      "name": "param_1->3_[3,3]_3_1_s44_Ord2_radial_(1,1,6,5)_weight", 
      "inputs": []
    }, 
    {
      "op": "broadcast_mul", 
      "name": "broadcast_mul308", 
      "inputs": [[455, 0, 0], [466, 0, 0]]
    }, 
    {
      "op": "null", 
      "name": "param_1->3_[3,3]_3_1_s44_Ord2_radial_(1,1,6,5)_bias", 
      "inputs": []
    }, 
    {
      "op": "broadcast_add", 
      "name": "broadcast_add288", 
      "inputs": [[467, 0, 0], [468, 0, 0]]
    }, 
    {
      "op": "_mul_scalar", 
      "name": "_mulscalar291", 
      "attrs": {"scalar": "100"}, 
      "inputs": [[469, 0, 0]]
    }, 
    {
      "op": "tanh", 
      "name": "tanh173", 
      "inputs": [[470, 0, 0]]
    }, 
    {
      "op": "elemwise_mul", 
      "name": "_mul173", 
      "inputs": [[469, 0, 0], [471, 0, 0]]
    }, 
    {
      "op": "elemwise_mul", 
      "name": "elemwise_mul483", 
      "inputs": [[465, 0, 0], [472, 0, 0]]
    }, 
    {
      "op": "tile", 
      "name": "tile373", 
      "attrs": {"reps": "(5, 10, 1, 1)"}, 
      "inputs": [[103, 0, 0]]
    }, 
    {
      "op": "BlockGrad", 
      "name": "blockgrad470", 
      "inputs": [[474, 0, 0]]
    }, 
    {
      "op": "_mul_scalar", 
      "name": "_mulscalar297", 
      "attrs": {"scalar": "1"}, 
      "inputs": [[475, 0, 0]]
    }, 
    {
      "op": "tile", 
      "name": "tile372", 
      "attrs": {"reps": "(5, 10, 1, 1)"}, 
      "inputs": [[93, 0, 0]]
    }, 
    {
      "op": "BlockGrad", 
      "name": "blockgrad469", 
      "inputs": [[477, 0, 0]]
    }, 
    {
      "op": "null", 
      "name": "param_2->3_[3,3]_3_1_s44_Ord1_angular_(1,1,10,5)_weight", 
      "inputs": []
    }, 
    {
      "op": "broadcast_mul", 
      "name": "broadcast_mul314", 
      "inputs": [[478, 0, 0], [479, 0, 0]]
    }, 
    {
      "op": "null", 
      "name": "param_2->3_[3,3]_3_1_s44_Ord1_angular_(1,1,10,5)_bias", 
      "inputs": []
    }, 
    {
      "op": "broadcast_add", 
      "name": "broadcast_add294", 
      "inputs": [[480, 0, 0], [481, 0, 0]]
    }, 
    {
      "op": "elemwise_add", 
      "name": "elemwise_add137", 
      "inputs": [[476, 0, 0], [482, 0, 0]]
    }, 
    {
      "op": "cos", 
      "name": "cos117", 
      "inputs": [[483, 0, 0]]
    }, 
    {
      "op": "ones_like", 
      "name": "ones_like117", 
      "inputs": [[478, 0, 0]]
    }, 
    {
      "op": "broadcast_lesser", 
      "name": "broadcast_lesser117", 
      "inputs": [[478, 0, 0], [485, 0, 0]]
    }, 
    {
      "op": "BlockGrad", 
      "name": "blockgrad471", 
      "inputs": [[486, 0, 0]]
    }, 
    {
      "op": "elemwise_mul", 
      "name": "elemwise_mul489", 
      "inputs": [[484, 0, 0], [487, 0, 0]]
    }, 
    {
      "op": "null", 
      "name": "param_2->3_[3,3]_3_1_s44_Ord1_radial_(1,1,10,5)_weight", 
      "inputs": []
    }, 
    {
      "op": "broadcast_mul", 
      "name": "broadcast_mul313", 
      "inputs": [[478, 0, 0], [489, 0, 0]]
    }, 
    {
      "op": "null", 
      "name": "param_2->3_[3,3]_3_1_s44_Ord1_radial_(1,1,10,5)_bias", 
      "inputs": []
    }, 
    {
      "op": "broadcast_add", 
      "name": "broadcast_add293", 
      "inputs": [[490, 0, 0], [491, 0, 0]]
    }, 
    {
      "op": "_mul_scalar", 
      "name": "_mulscalar296", 
      "attrs": {"scalar": "100"}, 
      "inputs": [[492, 0, 0]]
    }, 
    {
      "op": "tanh", 
      "name": "tanh176", 
      "inputs": [[493, 0, 0]]
    }, 
    {
      "op": "elemwise_mul", 
      "name": "_mul176", 
      "inputs": [[492, 0, 0], [494, 0, 0]]
    }, 
    {
      "op": "elemwise_mul", 
      "name": "elemwise_mul491", 
      "inputs": [[488, 0, 0], [495, 0, 0]]
    }, 
    {
      "op": "tile", 
      "name": "tile378", 
      "attrs": {"reps": "(5, 5, 1, 1)"}, 
      "inputs": [[93, 0, 0]]
    }, 
    {
      "op": "BlockGrad", 
      "name": "blockgrad478", 
      "inputs": [[497, 0, 0]]
    }, 
    {
      "op": "null", 
      "name": "param_3->3_[3,3]_3_1_s44_Ord0_radial_(1,1,5,5)_weight", 
      "inputs": []
    }, 
    {
      "op": "broadcast_mul", 
      "name": "broadcast_mul319", 
      "inputs": [[498, 0, 0], [499, 0, 0]]
    }, 
    {
      "op": "null", 
      "name": "param_3->3_[3,3]_3_1_s44_Ord0_radial_(1,1,5,5)_bias", 
      "inputs": []
    }, 
    {
      "op": "broadcast_add", 
      "name": "broadcast_add299", 
      "inputs": [[500, 0, 0], [501, 0, 0]]
    }, 
    {
      "op": "_mul_scalar", 
      "name": "_mulscalar302", 
      "attrs": {"scalar": "100"}, 
      "inputs": [[502, 0, 0]]
    }, 
    {
      "op": "tanh", 
      "name": "tanh179", 
      "inputs": [[503, 0, 0]]
    }, 
    {
      "op": "elemwise_mul", 
      "name": "_mul179", 
      "inputs": [[502, 0, 0], [504, 0, 0]]
    }, 
    {
      "op": "Concat", 
      "name": "sort_ins3_out3_Re_assm_[3,3]_3_1_s44", 
      "attrs": {
        "dim": "1", 
        "num_args": "3"
      }, 
      "inputs": [[473, 0, 0], [496, 0, 0], [505, 0, 0]]
    }, 
    {
      "op": "sin", 
      "name": "sin115", 
      "inputs": [[460, 0, 0]]
    }, 
    {
      "op": "elemwise_mul", 
      "name": "elemwise_mul480", 
      "inputs": [[507, 0, 0], [464, 0, 0]]
    }, 
    {
      "op": "elemwise_mul", 
      "name": "elemwise_mul482", 
      "inputs": [[508, 0, 0], [472, 0, 0]]
    }, 
    {
      "op": "sin", 
      "name": "sin117", 
      "inputs": [[483, 0, 0]]
    }, 
    {
      "op": "elemwise_mul", 
      "name": "elemwise_mul488", 
      "inputs": [[510, 0, 0], [487, 0, 0]]
    }, 
    {
      "op": "elemwise_mul", 
      "name": "elemwise_mul490", 
      "inputs": [[511, 0, 0], [495, 0, 0]]
    }, 
    {
      "op": "zeros_like", 
      "name": "zeros_like59", 
      "inputs": [[505, 0, 0]]
    }, 
    {
      "op": "Concat", 
      "name": "sort_ins3_out3_Im_assm_[3,3]_3_1_s44", 
      "attrs": {
        "dim": "1", 
        "num_args": "3"
      }, 
      "inputs": [[509, 0, 0], [512, 0, 0], [513, 0, 0]]
    }, 
    {
      "op": "Concat", 
      "name": "ReIm_ins3_out3_assm_[3,3]_3_1_s44", 
      "attrs": {
        "dim": "1", 
        "num_args": "2"
      }, 
      "inputs": [[506, 0, 0], [514, 0, 0]]
    }, 
    {
      "op": "negative", 
      "name": "negative113", 
      "inputs": [[383, 0, 0]]
    }, 
    {
      "op": "Concat", 
      "name": "ImRe_ins3_out1_assm_[3,3]_3_1_s44", 
      "attrs": {
        "dim": "1", 
        "num_args": "2"
      }, 
      "inputs": [[516, 0, 0], [373, 0, 0]]
    }, 
    {
      "op": "negative", 
      "name": "negative115", 
      "inputs": [[449, 0, 0]]
    }, 
    {
      "op": "Concat", 
      "name": "ImRe_ins3_out2_assm_[3,3]_3_1_s44", 
      "attrs": {
        "dim": "1", 
        "num_args": "2"
      }, 
      "inputs": [[518, 0, 0], [440, 0, 0]]
    }, 
    {
      "op": "negative", 
      "name": "negative116", 
      "inputs": [[514, 0, 0]]
    }, 
    {
      "op": "Concat", 
      "name": "ImRe_ins3_out3_assm_[3,3]_3_1_s44", 
      "attrs": {
        "dim": "1", 
        "num_args": "2"
      }, 
      "inputs": [[520, 0, 0], [506, 0, 0]]
    }, 
    {
      "op": "Concat", 
      "name": "assembledFilter_in3_out3_assm_[3,3]_3_1_s44", 
      "attrs": {
        "dim": "0", 
        "num_args": "6"
      }, 
      "inputs": [[384, 0, 0], [450, 0, 0], [515, 0, 0], [517, 0, 0], [519, 0, 0], [521, 0, 0]]
    }, 
    {
      "op": "Convolution", 
      "name": "conv_[3,3]_3_1_s44", 
      "attrs": {
        "dilate": "(1, 1)", 
        "kernel": "(3, 3)", 
        "no_bias": "1", 
        "num_filter": "42", 
        "pad": "(0, 0)", 
        "stride": "(1, 1)"
      }, 
      "inputs": [[317, 0, 0], [522, 0, 0]]
    }, 
    {
      "op": "square", 
      "name": "square40", 
      "inputs": [[523, 0, 0]]
    }, 
    {
      "op": "SliceChannel", 
      "name": "split20", 
      "attrs": {
        "axis": "1", 
        "num_outputs": "2"
      }, 
      "inputs": [[524, 0, 0]]
    }, 
    {
      "op": "elemwise_add", 
      "name": "elemwise_add140", 
      "inputs": [[525, 0, 0], [525, 1, 0]]
    }, 
    {
      "op": "_plus_scalar", 
      "name": "_plusscalar61", 
      "attrs": {"scalar": "2e-05"}, 
      "inputs": [[526, 0, 0]]
    }, 
    {
      "op": "sqrt", 
      "name": "sqrt40", 
      "inputs": [[527, 0, 0]]
    }, 
    {
      "op": "square", 
      "name": "square41", 
      "inputs": [[528, 0, 0]]
    }, 
    {
      "op": "_plus_scalar", 
      "name": "_plusscalar63", 
      "attrs": {"scalar": "1"}, 
      "inputs": [[529, 0, 0]]
    }, 
    {
      "op": "sqrt", 
      "name": "sqrt41", 
      "inputs": [[530, 0, 0]]
    }, 
    {
      "op": "elemwise_div", 
      "name": "_div40", 
      "inputs": [[528, 0, 0], [531, 0, 0]]
    }, 
    {
      "op": "null", 
      "name": "3_1_s44_(1,1,21,1)_mag_weight", 
      "inputs": []
    }, 
    {
      "op": "LeakyReLU", 
      "name": "leakyrelu20", 
      "attrs": {
        "act_type": "elu", 
        "slope": "1"
      }, 
      "inputs": [[533, 0, 0]]
    }, 
    {
      "op": "_plus_scalar", 
      "name": "_plusscalar62", 
      "attrs": {"scalar": "1"}, 
      "inputs": [[534, 0, 0]]
    }, 
    {
      "op": "broadcast_mul", 
      "name": "broadcast_mul320", 
      "inputs": [[532, 0, 0], [535, 0, 0]]
    }, 
    {
      "op": "elemwise_div", 
      "name": "_div41", 
      "inputs": [[536, 0, 0], [528, 0, 0]]
    }, 
    {
      "op": "tile", 
      "name": "tile380", 
      "attrs": {"reps": "(1, 2, 1, 1)"}, 
      "inputs": [[537, 0, 0]]
    }, 
    {
      "op": "elemwise_mul", 
      "name": "elemwise_mul500", 
      "inputs": [[523, 0, 0], [538, 0, 0]]
    }, 
    {
      "op": "Pad", 
      "name": "pad21", 
      "attrs": {
        "mode": "edge", 
        "pad_width": "(0, 0, 0, 0, 1, 1, 1, 1)"
      }, 
      "inputs": [[539, 0, 0]]
    }, 
    {
      "op": "tile", 
      "name": "tile381", 
      "attrs": {"reps": "(6, 6, 1, 1)"}, 
      "inputs": [[93, 0, 0]]
    }, 
    {
      "op": "BlockGrad", 
      "name": "blockgrad480", 
      "inputs": [[541, 0, 0]]
    }, 
    {
      "op": "null", 
      "name": "param_1->1_[3,3]_3_2_s40_Ord0_radial_(1,1,6,6)_weight", 
      "inputs": []
    }, 
    {
      "op": "broadcast_mul", 
      "name": "broadcast_mul321", 
      "inputs": [[542, 0, 0], [543, 0, 0]]
    }, 
    {
      "op": "null", 
      "name": "param_1->1_[3,3]_3_2_s40_Ord0_radial_(1,1,6,6)_bias", 
      "inputs": []
    }, 
    {
      "op": "broadcast_add", 
      "name": "broadcast_add300", 
      "inputs": [[544, 0, 0], [545, 0, 0]]
    }, 
    {
      "op": "_mul_scalar", 
      "name": "_mulscalar303", 
      "attrs": {"scalar": "100"}, 
      "inputs": [[546, 0, 0]]
    }, 
    {
      "op": "tanh", 
      "name": "tanh180", 
      "inputs": [[547, 0, 0]]
    }, 
    {
      "op": "elemwise_mul", 
      "name": "_mul180", 
      "inputs": [[546, 0, 0], [548, 0, 0]]
    }, 
    {
      "op": "tile", 
      "name": "tile388", 
      "attrs": {"reps": "(6, 10, 1, 1)"}, 
      "inputs": [[103, 0, 0]]
    }, 
    {
      "op": "BlockGrad", 
      "name": "blockgrad489", 
      "inputs": [[550, 0, 0]]
    }, 
    {
      "op": "_mul_scalar", 
      "name": "_mulscalar309", 
      "attrs": {"scalar": "1"}, 
      "inputs": [[551, 0, 0]]
    }, 
    {
      "op": "tile", 
      "name": "tile387", 
      "attrs": {"reps": "(6, 10, 1, 1)"}, 
      "inputs": [[93, 0, 0]]
    }, 
    {
      "op": "BlockGrad", 
      "name": "blockgrad488", 
      "inputs": [[553, 0, 0]]
    }, 
    {
      "op": "null", 
      "name": "param_2->1_[3,3]_3_2_s40_Ord1_angular_(1,1,10,6)_weight", 
      "inputs": []
    }, 
    {
      "op": "broadcast_mul", 
      "name": "broadcast_mul327", 
      "inputs": [[554, 0, 0], [555, 0, 0]]
    }, 
    {
      "op": "null", 
      "name": "param_2->1_[3,3]_3_2_s40_Ord1_angular_(1,1,10,6)_bias", 
      "inputs": []
    }, 
    {
      "op": "broadcast_add", 
      "name": "broadcast_add306", 
      "inputs": [[556, 0, 0], [557, 0, 0]]
    }, 
    {
      "op": "elemwise_add", 
      "name": "elemwise_add143", 
      "inputs": [[552, 0, 0], [558, 0, 0]]
    }, 
    {
      "op": "cos", 
      "name": "cos122", 
      "inputs": [[559, 0, 0]]
    }, 
    {
      "op": "ones_like", 
      "name": "ones_like122", 
      "inputs": [[554, 0, 0]]
    }, 
    {
      "op": "broadcast_lesser", 
      "name": "broadcast_lesser122", 
      "inputs": [[554, 0, 0], [561, 0, 0]]
    }, 
    {
      "op": "BlockGrad", 
      "name": "blockgrad490", 
      "inputs": [[562, 0, 0]]
    }, 
    {
      "op": "elemwise_mul", 
      "name": "elemwise_mul510", 
      "inputs": [[560, 0, 0], [563, 0, 0]]
    }, 
    {
      "op": "null", 
      "name": "param_2->1_[3,3]_3_2_s40_Ord1_radial_(1,1,10,6)_weight", 
      "inputs": []
    }, 
    {
      "op": "broadcast_mul", 
      "name": "broadcast_mul326", 
      "inputs": [[554, 0, 0], [565, 0, 0]]
    }, 
    {
      "op": "null", 
      "name": "param_2->1_[3,3]_3_2_s40_Ord1_radial_(1,1,10,6)_bias", 
      "inputs": []
    }, 
    {
      "op": "broadcast_add", 
      "name": "broadcast_add305", 
      "inputs": [[566, 0, 0], [567, 0, 0]]
    }, 
    {
      "op": "_mul_scalar", 
      "name": "_mulscalar308", 
      "attrs": {"scalar": "100"}, 
      "inputs": [[568, 0, 0]]
    }, 
    {
      "op": "tanh", 
      "name": "tanh183", 
      "inputs": [[569, 0, 0]]
    }, 
    {
      "op": "elemwise_mul", 
      "name": "_mul183", 
      "inputs": [[568, 0, 0], [570, 0, 0]]
    }, 
    {
      "op": "elemwise_mul", 
      "name": "elemwise_mul512", 
      "inputs": [[564, 0, 0], [571, 0, 0]]
    }, 
    {
      "op": "tile", 
      "name": "tile394", 
      "attrs": {"reps": "(6, 5, 1, 1)"}, 
      "inputs": [[103, 0, 0]]
    }, 
    {
      "op": "BlockGrad", 
      "name": "blockgrad497", 
      "inputs": [[573, 0, 0]]
    }, 
    {
      "op": "_mul_scalar", 
      "name": "_mulscalar314", 
      "attrs": {"scalar": "2"}, 
      "inputs": [[574, 0, 0]]
    }, 
    {
      "op": "tile", 
      "name": "tile393", 
      "attrs": {"reps": "(6, 5, 1, 1)"}, 
      "inputs": [[93, 0, 0]]
    }, 
    {
      "op": "BlockGrad", 
      "name": "blockgrad496", 
      "inputs": [[576, 0, 0]]
    }, 
    {
      "op": "null", 
      "name": "param_3->1_[3,3]_3_2_s40_Ord2_angular_(1,1,5,6)_weight", 
      "inputs": []
    }, 
    {
      "op": "broadcast_mul", 
      "name": "broadcast_mul332", 
      "inputs": [[577, 0, 0], [578, 0, 0]]
    }, 
    {
      "op": "null", 
      "name": "param_3->1_[3,3]_3_2_s40_Ord2_angular_(1,1,5,6)_bias", 
      "inputs": []
    }, 
    {
      "op": "broadcast_add", 
      "name": "broadcast_add311", 
      "inputs": [[579, 0, 0], [580, 0, 0]]
    }, 
    {
      "op": "elemwise_add", 
      "name": "elemwise_add145", 
      "inputs": [[575, 0, 0], [581, 0, 0]]
    }, 
    {
      "op": "cos", 
      "name": "cos124", 
      "inputs": [[582, 0, 0]]
    }, 
    {
      "op": "ones_like", 
      "name": "ones_like124", 
      "inputs": [[577, 0, 0]]
    }, 
    {
      "op": "broadcast_lesser", 
      "name": "broadcast_lesser124", 
      "inputs": [[577, 0, 0], [584, 0, 0]]
    }, 
    {
      "op": "BlockGrad", 
      "name": "blockgrad498", 
      "inputs": [[585, 0, 0]]
    }, 
    {
      "op": "elemwise_mul", 
      "name": "elemwise_mul518", 
      "inputs": [[583, 0, 0], [586, 0, 0]]
    }, 
    {
      "op": "null", 
      "name": "param_3->1_[3,3]_3_2_s40_Ord2_radial_(1,1,5,6)_weight", 
      "inputs": []
    }, 
    {
      "op": "broadcast_mul", 
      "name": "broadcast_mul331", 
      "inputs": [[577, 0, 0], [588, 0, 0]]
    }, 
    {
      "op": "null", 
      "name": "param_3->1_[3,3]_3_2_s40_Ord2_radial_(1,1,5,6)_bias", 
      "inputs": []
    }, 
    {
      "op": "broadcast_add", 
      "name": "broadcast_add310", 
      "inputs": [[589, 0, 0], [590, 0, 0]]
    }, 
    {
      "op": "_mul_scalar", 
      "name": "_mulscalar313", 
      "attrs": {"scalar": "100"}, 
      "inputs": [[591, 0, 0]]
    }, 
    {
      "op": "tanh", 
      "name": "tanh186", 
      "inputs": [[592, 0, 0]]
    }, 
    {
      "op": "elemwise_mul", 
      "name": "_mul186", 
      "inputs": [[591, 0, 0], [593, 0, 0]]
    }, 
    {
      "op": "elemwise_mul", 
      "name": "elemwise_mul520", 
      "inputs": [[587, 0, 0], [594, 0, 0]]
    }, 
    {
      "op": "Concat", 
      "name": "sort_ins3_out1_Re_assm_[3,3]_3_2_s40", 
      "attrs": {
        "dim": "1", 
        "num_args": "3"
      }, 
      "inputs": [[549, 0, 0], [572, 0, 0], [595, 0, 0]]
    }, 
    {
      "op": "zeros_like", 
      "name": "zeros_like60", 
      "inputs": [[549, 0, 0]]
    }, 
    {
      "op": "sin", 
      "name": "sin122", 
      "inputs": [[559, 0, 0]]
    }, 
    {
      "op": "elemwise_mul", 
      "name": "elemwise_mul509", 
      "inputs": [[598, 0, 0], [563, 0, 0]]
    }, 
    {
      "op": "elemwise_mul", 
      "name": "elemwise_mul511", 
      "inputs": [[599, 0, 0], [571, 0, 0]]
    }, 
    {
      "op": "negative", 
      "name": "negative117", 
      "inputs": [[600, 0, 0]]
    }, 
    {
      "op": "sin", 
      "name": "sin124", 
      "inputs": [[582, 0, 0]]
    }, 
    {
      "op": "elemwise_mul", 
      "name": "elemwise_mul517", 
      "inputs": [[602, 0, 0], [586, 0, 0]]
    }, 
    {
      "op": "elemwise_mul", 
      "name": "elemwise_mul519", 
      "inputs": [[603, 0, 0], [594, 0, 0]]
    }, 
    {
      "op": "negative", 
      "name": "negative118", 
      "inputs": [[604, 0, 0]]
    }, 
    {
      "op": "Concat", 
      "name": "sort_ins3_out1_Im_assm_[3,3]_3_2_s40", 
      "attrs": {
        "dim": "1", 
        "num_args": "3"
      }, 
      "inputs": [[597, 0, 0], [601, 0, 0], [605, 0, 0]]
    }, 
    {
      "op": "Concat", 
      "name": "ReIm_ins3_out1_assm_[3,3]_3_2_s40", 
      "attrs": {
        "dim": "1", 
        "num_args": "2"
      }, 
      "inputs": [[596, 0, 0], [606, 0, 0]]
    }, 
    {
      "op": "tile", 
      "name": "tile384", 
      "attrs": {"reps": "(10, 6, 1, 1)"}, 
      "inputs": [[103, 0, 0]]
    }, 
    {
      "op": "BlockGrad", 
      "name": "blockgrad483", 
      "inputs": [[608, 0, 0]]
    }, 
    {
      "op": "_mul_scalar", 
      "name": "_mulscalar305", 
      "attrs": {"scalar": "1"}, 
      "inputs": [[609, 0, 0]]
    }, 
    {
      "op": "tile", 
      "name": "tile383", 
      "attrs": {"reps": "(10, 6, 1, 1)"}, 
      "inputs": [[93, 0, 0]]
    }, 
    {
      "op": "BlockGrad", 
      "name": "blockgrad482", 
      "inputs": [[611, 0, 0]]
    }, 
    {
      "op": "null", 
      "name": "param_1->2_[3,3]_3_2_s40_Ord1_angular_(1,1,6,10)_weight", 
      "inputs": []
    }, 
    {
      "op": "broadcast_mul", 
      "name": "broadcast_mul323", 
      "inputs": [[612, 0, 0], [613, 0, 0]]
    }, 
    {
      "op": "null", 
      "name": "param_1->2_[3,3]_3_2_s40_Ord1_angular_(1,1,6,10)_bias", 
      "inputs": []
    }, 
    {
      "op": "broadcast_add", 
      "name": "broadcast_add302", 
      "inputs": [[614, 0, 0], [615, 0, 0]]
    }, 
    {
      "op": "elemwise_add", 
      "name": "elemwise_add141", 
      "inputs": [[610, 0, 0], [616, 0, 0]]
    }, 
    {
      "op": "cos", 
      "name": "cos120", 
      "inputs": [[617, 0, 0]]
    }, 
    {
      "op": "ones_like", 
      "name": "ones_like120", 
      "inputs": [[612, 0, 0]]
    }, 
    {
      "op": "broadcast_lesser", 
      "name": "broadcast_lesser120", 
      "inputs": [[612, 0, 0], [619, 0, 0]]
    }, 
    {
      "op": "BlockGrad", 
      "name": "blockgrad484", 
      "inputs": [[620, 0, 0]]
    }, 
    {
      "op": "elemwise_mul", 
      "name": "elemwise_mul502", 
      "inputs": [[618, 0, 0], [621, 0, 0]]
    }, 
    {
      "op": "null", 
      "name": "param_1->2_[3,3]_3_2_s40_Ord1_radial_(1,1,6,10)_weight", 
      "inputs": []
    }, 
    {
      "op": "broadcast_mul", 
      "name": "broadcast_mul322", 
      "inputs": [[612, 0, 0], [623, 0, 0]]
    }, 
    {
      "op": "null", 
      "name": "param_1->2_[3,3]_3_2_s40_Ord1_radial_(1,1,6,10)_bias", 
      "inputs": []
    }, 
    {
      "op": "broadcast_add", 
      "name": "broadcast_add301", 
      "inputs": [[624, 0, 0], [625, 0, 0]]
    }, 
    {
      "op": "_mul_scalar", 
      "name": "_mulscalar304", 
      "attrs": {"scalar": "100"}, 
      "inputs": [[626, 0, 0]]
    }, 
    {
      "op": "tanh", 
      "name": "tanh181", 
      "inputs": [[627, 0, 0]]
    }, 
    {
      "op": "elemwise_mul", 
      "name": "_mul181", 
      "inputs": [[626, 0, 0], [628, 0, 0]]
    }, 
    {
      "op": "elemwise_mul", 
      "name": "elemwise_mul504", 
      "inputs": [[622, 0, 0], [629, 0, 0]]
    }, 
    {
      "op": "tile", 
      "name": "tile389", 
      "attrs": {"reps": "(10, 10, 1, 1)"}, 
      "inputs": [[93, 0, 0]]
    }, 
    {
      "op": "BlockGrad", 
      "name": "blockgrad491", 
      "inputs": [[631, 0, 0]]
    }, 
    {
      "op": "null", 
      "name": "param_2->2_[3,3]_3_2_s40_Ord0_radial_(1,1,10,10)_weight", 
      "inputs": []
    }, 
    {
      "op": "broadcast_mul", 
      "name": "broadcast_mul328", 
      "inputs": [[632, 0, 0], [633, 0, 0]]
    }, 
    {
      "op": "null", 
      "name": "param_2->2_[3,3]_3_2_s40_Ord0_radial_(1,1,10,10)_bias", 
      "inputs": []
    }, 
    {
      "op": "broadcast_add", 
      "name": "broadcast_add307", 
      "inputs": [[634, 0, 0], [635, 0, 0]]
    }, 
    {
      "op": "_mul_scalar", 
      "name": "_mulscalar310", 
      "attrs": {"scalar": "100"}, 
      "inputs": [[636, 0, 0]]
    }, 
    {
      "op": "tanh", 
      "name": "tanh184", 
      "inputs": [[637, 0, 0]]
    }, 
    {
      "op": "elemwise_mul", 
      "name": "_mul184", 
      "inputs": [[636, 0, 0], [638, 0, 0]]
    }, 
    {
      "op": "tile", 
      "name": "tile396", 
      "attrs": {"reps": "(10, 5, 1, 1)"}, 
      "inputs": [[103, 0, 0]]
    }, 
    {
      "op": "BlockGrad", 
      "name": "blockgrad500", 
      "inputs": [[640, 0, 0]]
    }, 
    {
      "op": "_mul_scalar", 
      "name": "_mulscalar316", 
      "attrs": {"scalar": "1"}, 
      "inputs": [[641, 0, 0]]
    }, 
    {
      "op": "tile", 
      "name": "tile395", 
      "attrs": {"reps": "(10, 5, 1, 1)"}, 
      "inputs": [[93, 0, 0]]
    }, 
    {
      "op": "BlockGrad", 
      "name": "blockgrad499", 
      "inputs": [[643, 0, 0]]
    }, 
    {
      "op": "null", 
      "name": "param_3->2_[3,3]_3_2_s40_Ord1_angular_(1,1,5,10)_weight", 
      "inputs": []
    }, 
    {
      "op": "broadcast_mul", 
      "name": "broadcast_mul334", 
      "inputs": [[644, 0, 0], [645, 0, 0]]
    }, 
    {
      "op": "null", 
      "name": "param_3->2_[3,3]_3_2_s40_Ord1_angular_(1,1,5,10)_bias", 
      "inputs": []
    }, 
    {
      "op": "broadcast_add", 
      "name": "broadcast_add313", 
      "inputs": [[646, 0, 0], [647, 0, 0]]
    }, 
    {
      "op": "elemwise_add", 
      "name": "elemwise_add146", 
      "inputs": [[642, 0, 0], [648, 0, 0]]
    }, 
    {
      "op": "cos", 
      "name": "cos125", 
      "inputs": [[649, 0, 0]]
    }, 
    {
      "op": "ones_like", 
      "name": "ones_like125", 
      "inputs": [[644, 0, 0]]
    }, 
    {
      "op": "broadcast_lesser", 
      "name": "broadcast_lesser125", 
      "inputs": [[644, 0, 0], [651, 0, 0]]
    }, 
    {
      "op": "BlockGrad", 
      "name": "blockgrad501", 
      "inputs": [[652, 0, 0]]
    }, 
    {
      "op": "elemwise_mul", 
      "name": "elemwise_mul522", 
      "inputs": [[650, 0, 0], [653, 0, 0]]
    }, 
    {
      "op": "null", 
      "name": "param_3->2_[3,3]_3_2_s40_Ord1_radial_(1,1,5,10)_weight", 
      "inputs": []
    }, 
    {
      "op": "broadcast_mul", 
      "name": "broadcast_mul333", 
      "inputs": [[644, 0, 0], [655, 0, 0]]
    }, 
    {
      "op": "null", 
      "name": "param_3->2_[3,3]_3_2_s40_Ord1_radial_(1,1,5,10)_bias", 
      "inputs": []
    }, 
    {
      "op": "broadcast_add", 
      "name": "broadcast_add312", 
      "inputs": [[656, 0, 0], [657, 0, 0]]
    }, 
    {
      "op": "_mul_scalar", 
      "name": "_mulscalar315", 
      "attrs": {"scalar": "100"}, 
      "inputs": [[658, 0, 0]]
    }, 
    {
      "op": "tanh", 
      "name": "tanh187", 
      "inputs": [[659, 0, 0]]
    }, 
    {
      "op": "elemwise_mul", 
      "name": "_mul187", 
      "inputs": [[658, 0, 0], [660, 0, 0]]
    }, 
    {
      "op": "elemwise_mul", 
      "name": "elemwise_mul524", 
      "inputs": [[654, 0, 0], [661, 0, 0]]
    }, 
    {
      "op": "Concat", 
      "name": "sort_ins3_out2_Re_assm_[3,3]_3_2_s40", 
      "attrs": {
        "dim": "1", 
        "num_args": "3"
      }, 
      "inputs": [[630, 0, 0], [639, 0, 0], [662, 0, 0]]
    }, 
    {
      "op": "sin", 
      "name": "sin120", 
      "inputs": [[617, 0, 0]]
    }, 
    {
      "op": "elemwise_mul", 
      "name": "elemwise_mul501", 
      "inputs": [[664, 0, 0], [621, 0, 0]]
    }, 
    {
      "op": "elemwise_mul", 
      "name": "elemwise_mul503", 
      "inputs": [[665, 0, 0], [629, 0, 0]]
    }, 
    {
      "op": "zeros_like", 
      "name": "zeros_like61", 
      "inputs": [[639, 0, 0]]
    }, 
    {
      "op": "sin", 
      "name": "sin125", 
      "inputs": [[649, 0, 0]]
    }, 
    {
      "op": "elemwise_mul", 
      "name": "elemwise_mul521", 
      "inputs": [[668, 0, 0], [653, 0, 0]]
    }, 
    {
      "op": "elemwise_mul", 
      "name": "elemwise_mul523", 
      "inputs": [[669, 0, 0], [661, 0, 0]]
    }, 
    {
      "op": "negative", 
      "name": "negative120", 
      "inputs": [[670, 0, 0]]
    }, 
    {
      "op": "Concat", 
      "name": "sort_ins3_out2_Im_assm_[3,3]_3_2_s40", 
      "attrs": {
        "dim": "1", 
        "num_args": "3"
      }, 
      "inputs": [[666, 0, 0], [667, 0, 0], [671, 0, 0]]
    }, 
    {
      "op": "Concat", 
      "name": "ReIm_ins3_out2_assm_[3,3]_3_2_s40", 
      "attrs": {
        "dim": "1", 
        "num_args": "2"
      }, 
      "inputs": [[663, 0, 0], [672, 0, 0]]
    }, 
    {
      "op": "tile", 
      "name": "tile386", 
      "attrs": {"reps": "(5, 6, 1, 1)"}, 
      "inputs": [[103, 0, 0]]
    }, 
    {
      "op": "BlockGrad", 
      "name": "blockgrad486", 
      "inputs": [[674, 0, 0]]
    }, 
    {
      "op": "_mul_scalar", 
      "name": "_mulscalar307", 
      "attrs": {"scalar": "2"}, 
      "inputs": [[675, 0, 0]]
    }, 
    {
      "op": "tile", 
      "name": "tile385", 
      "attrs": {"reps": "(5, 6, 1, 1)"}, 
      "inputs": [[93, 0, 0]]
    }, 
    {
      "op": "BlockGrad", 
      "name": "blockgrad485", 
      "inputs": [[677, 0, 0]]
    }, 
    {
      "op": "null", 
      "name": "param_1->3_[3,3]_3_2_s40_Ord2_angular_(1,1,6,5)_weight", 
      "inputs": []
    }, 
    {
      "op": "broadcast_mul", 
      "name": "broadcast_mul325", 
      "inputs": [[678, 0, 0], [679, 0, 0]]
    }, 
    {
      "op": "null", 
      "name": "param_1->3_[3,3]_3_2_s40_Ord2_angular_(1,1,6,5)_bias", 
      "inputs": []
    }, 
    {
      "op": "broadcast_add", 
      "name": "broadcast_add304", 
      "inputs": [[680, 0, 0], [681, 0, 0]]
    }, 
    {
      "op": "elemwise_add", 
      "name": "elemwise_add142", 
      "inputs": [[676, 0, 0], [682, 0, 0]]
    }, 
    {
      "op": "cos", 
      "name": "cos121", 
      "inputs": [[683, 0, 0]]
    }, 
    {
      "op": "ones_like", 
      "name": "ones_like121", 
      "inputs": [[678, 0, 0]]
    }, 
    {
      "op": "broadcast_lesser", 
      "name": "broadcast_lesser121", 
      "inputs": [[678, 0, 0], [685, 0, 0]]
    }, 
    {
      "op": "BlockGrad", 
      "name": "blockgrad487", 
      "inputs": [[686, 0, 0]]
    }, 
    {
      "op": "elemwise_mul", 
      "name": "elemwise_mul506", 
      "inputs": [[684, 0, 0], [687, 0, 0]]
    }, 
    {
      "op": "null", 
      "name": "param_1->3_[3,3]_3_2_s40_Ord2_radial_(1,1,6,5)_weight", 
      "inputs": []
    }, 
    {
      "op": "broadcast_mul", 
      "name": "broadcast_mul324", 
      "inputs": [[678, 0, 0], [689, 0, 0]]
    }, 
    {
      "op": "null", 
      "name": "param_1->3_[3,3]_3_2_s40_Ord2_radial_(1,1,6,5)_bias", 
      "inputs": []
    }, 
    {
      "op": "broadcast_add", 
      "name": "broadcast_add303", 
      "inputs": [[690, 0, 0], [691, 0, 0]]
    }, 
    {
      "op": "_mul_scalar", 
      "name": "_mulscalar306", 
      "attrs": {"scalar": "100"}, 
      "inputs": [[692, 0, 0]]
    }, 
    {
      "op": "tanh", 
      "name": "tanh182", 
      "inputs": [[693, 0, 0]]
    }, 
    {
      "op": "elemwise_mul", 
      "name": "_mul182", 
      "inputs": [[692, 0, 0], [694, 0, 0]]
    }, 
    {
      "op": "elemwise_mul", 
      "name": "elemwise_mul508", 
      "inputs": [[688, 0, 0], [695, 0, 0]]
    }, 
    {
      "op": "tile", 
      "name": "tile392", 
      "attrs": {"reps": "(5, 10, 1, 1)"}, 
      "inputs": [[103, 0, 0]]
    }, 
    {
      "op": "BlockGrad", 
      "name": "blockgrad494", 
      "inputs": [[697, 0, 0]]
    }, 
    {
      "op": "_mul_scalar", 
      "name": "_mulscalar312", 
      "attrs": {"scalar": "1"}, 
      "inputs": [[698, 0, 0]]
    }, 
    {
      "op": "tile", 
      "name": "tile391", 
      "attrs": {"reps": "(5, 10, 1, 1)"}, 
      "inputs": [[93, 0, 0]]
    }, 
    {
      "op": "BlockGrad", 
      "name": "blockgrad493", 
      "inputs": [[700, 0, 0]]
    }, 
    {
      "op": "null", 
      "name": "param_2->3_[3,3]_3_2_s40_Ord1_angular_(1,1,10,5)_weight", 
      "inputs": []
    }, 
    {
      "op": "broadcast_mul", 
      "name": "broadcast_mul330", 
      "inputs": [[701, 0, 0], [702, 0, 0]]
    }, 
    {
      "op": "null", 
      "name": "param_2->3_[3,3]_3_2_s40_Ord1_angular_(1,1,10,5)_bias", 
      "inputs": []
    }, 
    {
      "op": "broadcast_add", 
      "name": "broadcast_add309", 
      "inputs": [[703, 0, 0], [704, 0, 0]]
    }, 
    {
      "op": "elemwise_add", 
      "name": "elemwise_add144", 
      "inputs": [[699, 0, 0], [705, 0, 0]]
    }, 
    {
      "op": "cos", 
      "name": "cos123", 
      "inputs": [[706, 0, 0]]
    }, 
    {
      "op": "ones_like", 
      "name": "ones_like123", 
      "inputs": [[701, 0, 0]]
    }, 
    {
      "op": "broadcast_lesser", 
      "name": "broadcast_lesser123", 
      "inputs": [[701, 0, 0], [708, 0, 0]]
    }, 
    {
      "op": "BlockGrad", 
      "name": "blockgrad495", 
      "inputs": [[709, 0, 0]]
    }, 
    {
      "op": "elemwise_mul", 
      "name": "elemwise_mul514", 
      "inputs": [[707, 0, 0], [710, 0, 0]]
    }, 
    {
      "op": "null", 
      "name": "param_2->3_[3,3]_3_2_s40_Ord1_radial_(1,1,10,5)_weight", 
      "inputs": []
    }, 
    {
      "op": "broadcast_mul", 
      "name": "broadcast_mul329", 
      "inputs": [[701, 0, 0], [712, 0, 0]]
    }, 
    {
      "op": "null", 
      "name": "param_2->3_[3,3]_3_2_s40_Ord1_radial_(1,1,10,5)_bias", 
      "inputs": []
    }, 
    {
      "op": "broadcast_add", 
      "name": "broadcast_add308", 
      "inputs": [[713, 0, 0], [714, 0, 0]]
    }, 
    {
      "op": "_mul_scalar", 
      "name": "_mulscalar311", 
      "attrs": {"scalar": "100"}, 
      "inputs": [[715, 0, 0]]
    }, 
    {
      "op": "tanh", 
      "name": "tanh185", 
      "inputs": [[716, 0, 0]]
    }, 
    {
      "op": "elemwise_mul", 
      "name": "_mul185", 
      "inputs": [[715, 0, 0], [717, 0, 0]]
    }, 
    {
      "op": "elemwise_mul", 
      "name": "elemwise_mul516", 
      "inputs": [[711, 0, 0], [718, 0, 0]]
    }, 
    {
      "op": "tile", 
      "name": "tile397", 
      "attrs": {"reps": "(5, 5, 1, 1)"}, 
      "inputs": [[93, 0, 0]]
    }, 
    {
      "op": "BlockGrad", 
      "name": "blockgrad502", 
      "inputs": [[720, 0, 0]]
    }, 
    {
      "op": "null", 
      "name": "param_3->3_[3,3]_3_2_s40_Ord0_radial_(1,1,5,5)_weight", 
      "inputs": []
    }, 
    {
      "op": "broadcast_mul", 
      "name": "broadcast_mul335", 
      "inputs": [[721, 0, 0], [722, 0, 0]]
    }, 
    {
      "op": "null", 
      "name": "param_3->3_[3,3]_3_2_s40_Ord0_radial_(1,1,5,5)_bias", 
      "inputs": []
    }, 
    {
      "op": "broadcast_add", 
      "name": "broadcast_add314", 
      "inputs": [[723, 0, 0], [724, 0, 0]]
    }, 
    {
      "op": "_mul_scalar", 
      "name": "_mulscalar317", 
      "attrs": {"scalar": "100"}, 
      "inputs": [[725, 0, 0]]
    }, 
    {
      "op": "tanh", 
      "name": "tanh188", 
      "inputs": [[726, 0, 0]]
    }, 
    {
      "op": "elemwise_mul", 
      "name": "_mul188", 
      "inputs": [[725, 0, 0], [727, 0, 0]]
    }, 
    {
      "op": "Concat", 
      "name": "sort_ins3_out3_Re_assm_[3,3]_3_2_s40", 
      "attrs": {
        "dim": "1", 
        "num_args": "3"
      }, 
      "inputs": [[696, 0, 0], [719, 0, 0], [728, 0, 0]]
    }, 
    {
      "op": "sin", 
      "name": "sin121", 
      "inputs": [[683, 0, 0]]
    }, 
    {
      "op": "elemwise_mul", 
      "name": "elemwise_mul505", 
      "inputs": [[730, 0, 0], [687, 0, 0]]
    }, 
    {
      "op": "elemwise_mul", 
      "name": "elemwise_mul507", 
      "inputs": [[731, 0, 0], [695, 0, 0]]
    }, 
    {
      "op": "sin", 
      "name": "sin123", 
      "inputs": [[706, 0, 0]]
    }, 
    {
      "op": "elemwise_mul", 
      "name": "elemwise_mul513", 
      "inputs": [[733, 0, 0], [710, 0, 0]]
    }, 
    {
      "op": "elemwise_mul", 
      "name": "elemwise_mul515", 
      "inputs": [[734, 0, 0], [718, 0, 0]]
    }, 
    {
      "op": "zeros_like", 
      "name": "zeros_like62", 
      "inputs": [[728, 0, 0]]
    }, 
    {
      "op": "Concat", 
      "name": "sort_ins3_out3_Im_assm_[3,3]_3_2_s40", 
      "attrs": {
        "dim": "1", 
        "num_args": "3"
      }, 
      "inputs": [[732, 0, 0], [735, 0, 0], [736, 0, 0]]
    }, 
    {
      "op": "Concat", 
      "name": "ReIm_ins3_out3_assm_[3,3]_3_2_s40", 
      "attrs": {
        "dim": "1", 
        "num_args": "2"
      }, 
      "inputs": [[729, 0, 0], [737, 0, 0]]
    }, 
    {
      "op": "negative", 
      "name": "negative119", 
      "inputs": [[606, 0, 0]]
    }, 
    {
      "op": "Concat", 
      "name": "ImRe_ins3_out1_assm_[3,3]_3_2_s40", 
      "attrs": {
        "dim": "1", 
        "num_args": "2"
      }, 
      "inputs": [[739, 0, 0], [596, 0, 0]]
    }, 
    {
      "op": "negative", 
      "name": "negative121", 
      "inputs": [[672, 0, 0]]
    }, 
    {
      "op": "Concat", 
      "name": "ImRe_ins3_out2_assm_[3,3]_3_2_s40", 
      "attrs": {
        "dim": "1", 
        "num_args": "2"
      }, 
      "inputs": [[741, 0, 0], [663, 0, 0]]
    }, 
    {
      "op": "negative", 
      "name": "negative122", 
      "inputs": [[737, 0, 0]]
    }, 
    {
      "op": "Concat", 
      "name": "ImRe_ins3_out3_assm_[3,3]_3_2_s40", 
      "attrs": {
        "dim": "1", 
        "num_args": "2"
      }, 
      "inputs": [[743, 0, 0], [729, 0, 0]]
    }, 
    {
      "op": "Concat", 
      "name": "assembledFilter_in3_out3_assm_[3,3]_3_2_s40", 
      "attrs": {
        "dim": "0", 
        "num_args": "6"
      }, 
      "inputs": [[607, 0, 0], [673, 0, 0], [738, 0, 0], [740, 0, 0], [742, 0, 0], [744, 0, 0]]
    }, 
    {
      "op": "Convolution", 
      "name": "conv_[3,3]_3_2_s40", 
      "attrs": {
        "dilate": "(1, 1)", 
        "kernel": "(3, 3)", 
        "no_bias": "1", 
        "num_filter": "42", 
        "pad": "(0, 0)", 
        "stride": "(1, 1)"
      }, 
      "inputs": [[540, 0, 0], [745, 0, 0]]
    }, 
    {
      "op": "square", 
      "name": "square42", 
      "inputs": [[746, 0, 0]]
    }, 
    {
      "op": "SliceChannel", 
      "name": "split21", 
      "attrs": {
        "axis": "1", 
        "num_outputs": "2"
      }, 
      "inputs": [[747, 0, 0]]
    }, 
    {
      "op": "elemwise_add", 
      "name": "elemwise_add147", 
      "inputs": [[748, 0, 0], [748, 1, 0]]
    }, 
    {
      "op": "_plus_scalar", 
      "name": "_plusscalar64", 
      "attrs": {"scalar": "2e-05"}, 
      "inputs": [[749, 0, 0]]
    }, 
    {
      "op": "sqrt", 
      "name": "sqrt42", 
      "inputs": [[750, 0, 0]]
    }, 
    {
      "op": "square", 
      "name": "square43", 
      "inputs": [[751, 0, 0]]
    }, 
    {
      "op": "_plus_scalar", 
      "name": "_plusscalar66", 
      "attrs": {"scalar": "1"}, 
      "inputs": [[752, 0, 0]]
    }, 
    {
      "op": "sqrt", 
      "name": "sqrt43", 
      "inputs": [[753, 0, 0]]
    }, 
    {
      "op": "elemwise_div", 
      "name": "_div42", 
      "inputs": [[751, 0, 0], [754, 0, 0]]
    }, 
    {
      "op": "null", 
      "name": "3_2_s40_(1,1,21,1)_mag_weight", 
      "inputs": []
    }, 
    {
      "op": "LeakyReLU", 
      "name": "leakyrelu21", 
      "attrs": {
        "act_type": "elu", 
        "slope": "1"
      }, 
      "inputs": [[756, 0, 0]]
    }, 
    {
      "op": "_plus_scalar", 
      "name": "_plusscalar65", 
      "attrs": {"scalar": "1"}, 
      "inputs": [[757, 0, 0]]
    }, 
    {
      "op": "broadcast_mul", 
      "name": "broadcast_mul336", 
      "inputs": [[755, 0, 0], [758, 0, 0]]
    }, 
    {
      "op": "elemwise_div", 
      "name": "_div43", 
      "inputs": [[759, 0, 0], [751, 0, 0]]
    }, 
    {
      "op": "tile", 
      "name": "tile399", 
      "attrs": {"reps": "(1, 2, 1, 1)"}, 
      "inputs": [[760, 0, 0]]
    }, 
    {
      "op": "elemwise_mul", 
      "name": "elemwise_mul525", 
      "inputs": [[746, 0, 0], [761, 0, 0]]
    }, 
    {
      "op": "elemwise_add", 
      "name": "skipConn_3", 
      "inputs": [[316, 0, 0], [762, 0, 0]]
    }, 
    {
      "op": "Pad", 
      "name": "pad22", 
      "attrs": {
        "mode": "edge", 
        "pad_width": "(0, 0, 0, 0, 2, 2, 2, 2)"
      }, 
      "inputs": [[763, 0, 0]]
    }, 
    {
      "op": "tile", 
      "name": "tile400", 
      "attrs": {"reps": "(6, 6, 1, 1)"}, 
      "inputs": [[93, 0, 0]]
    }, 
    {
      "op": "BlockGrad", 
      "name": "blockgrad504", 
      "inputs": [[765, 0, 0]]
    }, 
    {
      "op": "null", 
      "name": "param_1->1_[3,3]_4_1_s13_Ord0_radial_(1,1,6,6)_weight", 
      "inputs": []
    }, 
    {
      "op": "broadcast_mul", 
      "name": "broadcast_mul337", 
      "inputs": [[766, 0, 0], [767, 0, 0]]
    }, 
    {
      "op": "null", 
      "name": "param_1->1_[3,3]_4_1_s13_Ord0_radial_(1,1,6,6)_bias", 
      "inputs": []
    }, 
    {
      "op": "broadcast_add", 
      "name": "broadcast_add315", 
      "inputs": [[768, 0, 0], [769, 0, 0]]
    }, 
    {
      "op": "_mul_scalar", 
      "name": "_mulscalar318", 
      "attrs": {"scalar": "100"}, 
      "inputs": [[770, 0, 0]]
    }, 
    {
      "op": "tanh", 
      "name": "tanh189", 
      "inputs": [[771, 0, 0]]
    }, 
    {
      "op": "elemwise_mul", 
      "name": "_mul189", 
      "inputs": [[770, 0, 0], [772, 0, 0]]
    }, 
    {
      "op": "tile", 
      "name": "tile407", 
      "attrs": {"reps": "(6, 10, 1, 1)"}, 
      "inputs": [[103, 0, 0]]
    }, 
    {
      "op": "BlockGrad", 
      "name": "blockgrad513", 
      "inputs": [[774, 0, 0]]
    }, 
    {
      "op": "_mul_scalar", 
      "name": "_mulscalar324", 
      "attrs": {"scalar": "1"}, 
      "inputs": [[775, 0, 0]]
    }, 
    {
      "op": "tile", 
      "name": "tile406", 
      "attrs": {"reps": "(6, 10, 1, 1)"}, 
      "inputs": [[93, 0, 0]]
    }, 
    {
      "op": "BlockGrad", 
      "name": "blockgrad512", 
      "inputs": [[777, 0, 0]]
    }, 
    {
      "op": "null", 
      "name": "param_2->1_[3,3]_4_1_s13_Ord1_angular_(1,1,10,6)_weight", 
      "inputs": []
    }, 
    {
      "op": "broadcast_mul", 
      "name": "broadcast_mul343", 
      "inputs": [[778, 0, 0], [779, 0, 0]]
    }, 
    {
      "op": "null", 
      "name": "param_2->1_[3,3]_4_1_s13_Ord1_angular_(1,1,10,6)_bias", 
      "inputs": []
    }, 
    {
      "op": "broadcast_add", 
      "name": "broadcast_add321", 
      "inputs": [[780, 0, 0], [781, 0, 0]]
    }, 
    {
      "op": "elemwise_add", 
      "name": "elemwise_add150", 
      "inputs": [[776, 0, 0], [782, 0, 0]]
    }, 
    {
      "op": "cos", 
      "name": "cos128", 
      "inputs": [[783, 0, 0]]
    }, 
    {
      "op": "ones_like", 
      "name": "ones_like128", 
      "inputs": [[778, 0, 0]]
    }, 
    {
      "op": "broadcast_lesser", 
      "name": "broadcast_lesser128", 
      "inputs": [[778, 0, 0], [785, 0, 0]]
    }, 
    {
      "op": "BlockGrad", 
      "name": "blockgrad514", 
      "inputs": [[786, 0, 0]]
    }, 
    {
      "op": "elemwise_mul", 
      "name": "elemwise_mul535", 
      "inputs": [[784, 0, 0], [787, 0, 0]]
    }, 
    {
      "op": "null", 
      "name": "param_2->1_[3,3]_4_1_s13_Ord1_radial_(1,1,10,6)_weight", 
      "inputs": []
    }, 
    {
      "op": "broadcast_mul", 
      "name": "broadcast_mul342", 
      "inputs": [[778, 0, 0], [789, 0, 0]]
    }, 
    {
      "op": "null", 
      "name": "param_2->1_[3,3]_4_1_s13_Ord1_radial_(1,1,10,6)_bias", 
      "inputs": []
    }, 
    {
      "op": "broadcast_add", 
      "name": "broadcast_add320", 
      "inputs": [[790, 0, 0], [791, 0, 0]]
    }, 
    {
      "op": "_mul_scalar", 
      "name": "_mulscalar323", 
      "attrs": {"scalar": "100"}, 
      "inputs": [[792, 0, 0]]
    }, 
    {
      "op": "tanh", 
      "name": "tanh192", 
      "inputs": [[793, 0, 0]]
    }, 
    {
      "op": "elemwise_mul", 
      "name": "_mul192", 
      "inputs": [[792, 0, 0], [794, 0, 0]]
    }, 
    {
      "op": "elemwise_mul", 
      "name": "elemwise_mul537", 
      "inputs": [[788, 0, 0], [795, 0, 0]]
    }, 
    {
      "op": "tile", 
      "name": "tile413", 
      "attrs": {"reps": "(6, 5, 1, 1)"}, 
      "inputs": [[103, 0, 0]]
    }, 
    {
      "op": "BlockGrad", 
      "name": "blockgrad521", 
      "inputs": [[797, 0, 0]]
    }, 
    {
      "op": "_mul_scalar", 
      "name": "_mulscalar329", 
      "attrs": {"scalar": "2"}, 
      "inputs": [[798, 0, 0]]
    }, 
    {
      "op": "tile", 
      "name": "tile412", 
      "attrs": {"reps": "(6, 5, 1, 1)"}, 
      "inputs": [[93, 0, 0]]
    }, 
    {
      "op": "BlockGrad", 
      "name": "blockgrad520", 
      "inputs": [[800, 0, 0]]
    }, 
    {
      "op": "null", 
      "name": "param_3->1_[3,3]_4_1_s13_Ord2_angular_(1,1,5,6)_weight", 
      "inputs": []
    }, 
    {
      "op": "broadcast_mul", 
      "name": "broadcast_mul348", 
      "inputs": [[801, 0, 0], [802, 0, 0]]
    }, 
    {
      "op": "null", 
      "name": "param_3->1_[3,3]_4_1_s13_Ord2_angular_(1,1,5,6)_bias", 
      "inputs": []
    }, 
    {
      "op": "broadcast_add", 
      "name": "broadcast_add326", 
      "inputs": [[803, 0, 0], [804, 0, 0]]
    }, 
    {
      "op": "elemwise_add", 
      "name": "elemwise_add152", 
      "inputs": [[799, 0, 0], [805, 0, 0]]
    }, 
    {
      "op": "cos", 
      "name": "cos130", 
      "inputs": [[806, 0, 0]]
    }, 
    {
      "op": "ones_like", 
      "name": "ones_like130", 
      "inputs": [[801, 0, 0]]
    }, 
    {
      "op": "broadcast_lesser", 
      "name": "broadcast_lesser130", 
      "inputs": [[801, 0, 0], [808, 0, 0]]
    }, 
    {
      "op": "BlockGrad", 
      "name": "blockgrad522", 
      "inputs": [[809, 0, 0]]
    }, 
    {
      "op": "elemwise_mul", 
      "name": "elemwise_mul543", 
      "inputs": [[807, 0, 0], [810, 0, 0]]
    }, 
    {
      "op": "null", 
      "name": "param_3->1_[3,3]_4_1_s13_Ord2_radial_(1,1,5,6)_weight", 
      "inputs": []
    }, 
    {
      "op": "broadcast_mul", 
      "name": "broadcast_mul347", 
      "inputs": [[801, 0, 0], [812, 0, 0]]
    }, 
    {
      "op": "null", 
      "name": "param_3->1_[3,3]_4_1_s13_Ord2_radial_(1,1,5,6)_bias", 
      "inputs": []
    }, 
    {
      "op": "broadcast_add", 
      "name": "broadcast_add325", 
      "inputs": [[813, 0, 0], [814, 0, 0]]
    }, 
    {
      "op": "_mul_scalar", 
      "name": "_mulscalar328", 
      "attrs": {"scalar": "100"}, 
      "inputs": [[815, 0, 0]]
    }, 
    {
      "op": "tanh", 
      "name": "tanh195", 
      "inputs": [[816, 0, 0]]
    }, 
    {
      "op": "elemwise_mul", 
      "name": "_mul195", 
      "inputs": [[815, 0, 0], [817, 0, 0]]
    }, 
    {
      "op": "elemwise_mul", 
      "name": "elemwise_mul545", 
      "inputs": [[811, 0, 0], [818, 0, 0]]
    }, 
    {
      "op": "Concat", 
      "name": "sort_ins3_out1_Re_assm_[3,3]_4_1_s13", 
      "attrs": {
        "dim": "1", 
        "num_args": "3"
      }, 
      "inputs": [[773, 0, 0], [796, 0, 0], [819, 0, 0]]
    }, 
    {
      "op": "zeros_like", 
      "name": "zeros_like63", 
      "inputs": [[773, 0, 0]]
    }, 
    {
      "op": "sin", 
      "name": "sin128", 
      "inputs": [[783, 0, 0]]
    }, 
    {
      "op": "elemwise_mul", 
      "name": "elemwise_mul534", 
      "inputs": [[822, 0, 0], [787, 0, 0]]
    }, 
    {
      "op": "elemwise_mul", 
      "name": "elemwise_mul536", 
      "inputs": [[823, 0, 0], [795, 0, 0]]
    }, 
    {
      "op": "negative", 
      "name": "negative123", 
      "inputs": [[824, 0, 0]]
    }, 
    {
      "op": "sin", 
      "name": "sin130", 
      "inputs": [[806, 0, 0]]
    }, 
    {
      "op": "elemwise_mul", 
      "name": "elemwise_mul542", 
      "inputs": [[826, 0, 0], [810, 0, 0]]
    }, 
    {
      "op": "elemwise_mul", 
      "name": "elemwise_mul544", 
      "inputs": [[827, 0, 0], [818, 0, 0]]
    }, 
    {
      "op": "negative", 
      "name": "negative124", 
      "inputs": [[828, 0, 0]]
    }, 
    {
      "op": "Concat", 
      "name": "sort_ins3_out1_Im_assm_[3,3]_4_1_s13", 
      "attrs": {
        "dim": "1", 
        "num_args": "3"
      }, 
      "inputs": [[821, 0, 0], [825, 0, 0], [829, 0, 0]]
    }, 
    {
      "op": "Concat", 
      "name": "ReIm_ins3_out1_assm_[3,3]_4_1_s13", 
      "attrs": {
        "dim": "1", 
        "num_args": "2"
      }, 
      "inputs": [[820, 0, 0], [830, 0, 0]]
    }, 
    {
      "op": "tile", 
      "name": "tile403", 
      "attrs": {"reps": "(10, 6, 1, 1)"}, 
      "inputs": [[103, 0, 0]]
    }, 
    {
      "op": "BlockGrad", 
      "name": "blockgrad507", 
      "inputs": [[832, 0, 0]]
    }, 
    {
      "op": "_mul_scalar", 
      "name": "_mulscalar320", 
      "attrs": {"scalar": "1"}, 
      "inputs": [[833, 0, 0]]
    }, 
    {
      "op": "tile", 
      "name": "tile402", 
      "attrs": {"reps": "(10, 6, 1, 1)"}, 
      "inputs": [[93, 0, 0]]
    }, 
    {
      "op": "BlockGrad", 
      "name": "blockgrad506", 
      "inputs": [[835, 0, 0]]
    }, 
    {
      "op": "null", 
      "name": "param_1->2_[3,3]_4_1_s13_Ord1_angular_(1,1,6,10)_weight", 
      "inputs": []
    }, 
    {
      "op": "broadcast_mul", 
      "name": "broadcast_mul339", 
      "inputs": [[836, 0, 0], [837, 0, 0]]
    }, 
    {
      "op": "null", 
      "name": "param_1->2_[3,3]_4_1_s13_Ord1_angular_(1,1,6,10)_bias", 
      "inputs": []
    }, 
    {
      "op": "broadcast_add", 
      "name": "broadcast_add317", 
      "inputs": [[838, 0, 0], [839, 0, 0]]
    }, 
    {
      "op": "elemwise_add", 
      "name": "elemwise_add148", 
      "inputs": [[834, 0, 0], [840, 0, 0]]
    }, 
    {
      "op": "cos", 
      "name": "cos126", 
      "inputs": [[841, 0, 0]]
    }, 
    {
      "op": "ones_like", 
      "name": "ones_like126", 
      "inputs": [[836, 0, 0]]
    }, 
    {
      "op": "broadcast_lesser", 
      "name": "broadcast_lesser126", 
      "inputs": [[836, 0, 0], [843, 0, 0]]
    }, 
    {
      "op": "BlockGrad", 
      "name": "blockgrad508", 
      "inputs": [[844, 0, 0]]
    }, 
    {
      "op": "elemwise_mul", 
      "name": "elemwise_mul527", 
      "inputs": [[842, 0, 0], [845, 0, 0]]
    }, 
    {
      "op": "null", 
      "name": "param_1->2_[3,3]_4_1_s13_Ord1_radial_(1,1,6,10)_weight", 
      "inputs": []
    }, 
    {
      "op": "broadcast_mul", 
      "name": "broadcast_mul338", 
      "inputs": [[836, 0, 0], [847, 0, 0]]
    }, 
    {
      "op": "null", 
      "name": "param_1->2_[3,3]_4_1_s13_Ord1_radial_(1,1,6,10)_bias", 
      "inputs": []
    }, 
    {
      "op": "broadcast_add", 
      "name": "broadcast_add316", 
      "inputs": [[848, 0, 0], [849, 0, 0]]
    }, 
    {
      "op": "_mul_scalar", 
      "name": "_mulscalar319", 
      "attrs": {"scalar": "100"}, 
      "inputs": [[850, 0, 0]]
    }, 
    {
      "op": "tanh", 
      "name": "tanh190", 
      "inputs": [[851, 0, 0]]
    }, 
    {
      "op": "elemwise_mul", 
      "name": "_mul190", 
      "inputs": [[850, 0, 0], [852, 0, 0]]
    }, 
    {
      "op": "elemwise_mul", 
      "name": "elemwise_mul529", 
      "inputs": [[846, 0, 0], [853, 0, 0]]
    }, 
    {
      "op": "tile", 
      "name": "tile408", 
      "attrs": {"reps": "(10, 10, 1, 1)"}, 
      "inputs": [[93, 0, 0]]
    }, 
    {
      "op": "BlockGrad", 
      "name": "blockgrad515", 
      "inputs": [[855, 0, 0]]
    }, 
    {
      "op": "null", 
      "name": "param_2->2_[3,3]_4_1_s13_Ord0_radial_(1,1,10,10)_weight", 
      "inputs": []
    }, 
    {
      "op": "broadcast_mul", 
      "name": "broadcast_mul344", 
      "inputs": [[856, 0, 0], [857, 0, 0]]
    }, 
    {
      "op": "null", 
      "name": "param_2->2_[3,3]_4_1_s13_Ord0_radial_(1,1,10,10)_bias", 
      "inputs": []
    }, 
    {
      "op": "broadcast_add", 
      "name": "broadcast_add322", 
      "inputs": [[858, 0, 0], [859, 0, 0]]
    }, 
    {
      "op": "_mul_scalar", 
      "name": "_mulscalar325", 
      "attrs": {"scalar": "100"}, 
      "inputs": [[860, 0, 0]]
    }, 
    {
      "op": "tanh", 
      "name": "tanh193", 
      "inputs": [[861, 0, 0]]
    }, 
    {
      "op": "elemwise_mul", 
      "name": "_mul193", 
      "inputs": [[860, 0, 0], [862, 0, 0]]
    }, 
    {
      "op": "tile", 
      "name": "tile415", 
      "attrs": {"reps": "(10, 5, 1, 1)"}, 
      "inputs": [[103, 0, 0]]
    }, 
    {
      "op": "BlockGrad", 
      "name": "blockgrad524", 
      "inputs": [[864, 0, 0]]
    }, 
    {
      "op": "_mul_scalar", 
      "name": "_mulscalar331", 
      "attrs": {"scalar": "1"}, 
      "inputs": [[865, 0, 0]]
    }, 
    {
      "op": "tile", 
      "name": "tile414", 
      "attrs": {"reps": "(10, 5, 1, 1)"}, 
      "inputs": [[93, 0, 0]]
    }, 
    {
      "op": "BlockGrad", 
      "name": "blockgrad523", 
      "inputs": [[867, 0, 0]]
    }, 
    {
      "op": "null", 
      "name": "param_3->2_[3,3]_4_1_s13_Ord1_angular_(1,1,5,10)_weight", 
      "inputs": []
    }, 
    {
      "op": "broadcast_mul", 
      "name": "broadcast_mul350", 
      "inputs": [[868, 0, 0], [869, 0, 0]]
    }, 
    {
      "op": "null", 
      "name": "param_3->2_[3,3]_4_1_s13_Ord1_angular_(1,1,5,10)_bias", 
      "inputs": []
    }, 
    {
      "op": "broadcast_add", 
      "name": "broadcast_add328", 
      "inputs": [[870, 0, 0], [871, 0, 0]]
    }, 
    {
      "op": "elemwise_add", 
      "name": "elemwise_add153", 
      "inputs": [[866, 0, 0], [872, 0, 0]]
    }, 
    {
      "op": "cos", 
      "name": "cos131", 
      "inputs": [[873, 0, 0]]
    }, 
    {
      "op": "ones_like", 
      "name": "ones_like131", 
      "inputs": [[868, 0, 0]]
    }, 
    {
      "op": "broadcast_lesser", 
      "name": "broadcast_lesser131", 
      "inputs": [[868, 0, 0], [875, 0, 0]]
    }, 
    {
      "op": "BlockGrad", 
      "name": "blockgrad525", 
      "inputs": [[876, 0, 0]]
    }, 
    {
      "op": "elemwise_mul", 
      "name": "elemwise_mul547", 
      "inputs": [[874, 0, 0], [877, 0, 0]]
    }, 
    {
      "op": "null", 
      "name": "param_3->2_[3,3]_4_1_s13_Ord1_radial_(1,1,5,10)_weight", 
      "inputs": []
    }, 
    {
      "op": "broadcast_mul", 
      "name": "broadcast_mul349", 
      "inputs": [[868, 0, 0], [879, 0, 0]]
    }, 
    {
      "op": "null", 
      "name": "param_3->2_[3,3]_4_1_s13_Ord1_radial_(1,1,5,10)_bias", 
      "inputs": []
    }, 
    {
      "op": "broadcast_add", 
      "name": "broadcast_add327", 
      "inputs": [[880, 0, 0], [881, 0, 0]]
    }, 
    {
      "op": "_mul_scalar", 
      "name": "_mulscalar330", 
      "attrs": {"scalar": "100"}, 
      "inputs": [[882, 0, 0]]
    }, 
    {
      "op": "tanh", 
      "name": "tanh196", 
      "inputs": [[883, 0, 0]]
    }, 
    {
      "op": "elemwise_mul", 
      "name": "_mul196", 
      "inputs": [[882, 0, 0], [884, 0, 0]]
    }, 
    {
      "op": "elemwise_mul", 
      "name": "elemwise_mul549", 
      "inputs": [[878, 0, 0], [885, 0, 0]]
    }, 
    {
      "op": "Concat", 
      "name": "sort_ins3_out2_Re_assm_[3,3]_4_1_s13", 
      "attrs": {
        "dim": "1", 
        "num_args": "3"
      }, 
      "inputs": [[854, 0, 0], [863, 0, 0], [886, 0, 0]]
    }, 
    {
      "op": "sin", 
      "name": "sin126", 
      "inputs": [[841, 0, 0]]
    }, 
    {
      "op": "elemwise_mul", 
      "name": "elemwise_mul526", 
      "inputs": [[888, 0, 0], [845, 0, 0]]
    }, 
    {
      "op": "elemwise_mul", 
      "name": "elemwise_mul528", 
      "inputs": [[889, 0, 0], [853, 0, 0]]
    }, 
    {
      "op": "zeros_like", 
      "name": "zeros_like64", 
      "inputs": [[863, 0, 0]]
    }, 
    {
      "op": "sin", 
      "name": "sin131", 
      "inputs": [[873, 0, 0]]
    }, 
    {
      "op": "elemwise_mul", 
      "name": "elemwise_mul546", 
      "inputs": [[892, 0, 0], [877, 0, 0]]
    }, 
    {
      "op": "elemwise_mul", 
      "name": "elemwise_mul548", 
      "inputs": [[893, 0, 0], [885, 0, 0]]
    }, 
    {
      "op": "negative", 
      "name": "negative126", 
      "inputs": [[894, 0, 0]]
    }, 
    {
      "op": "Concat", 
      "name": "sort_ins3_out2_Im_assm_[3,3]_4_1_s13", 
      "attrs": {
        "dim": "1", 
        "num_args": "3"
      }, 
      "inputs": [[890, 0, 0], [891, 0, 0], [895, 0, 0]]
    }, 
    {
      "op": "Concat", 
      "name": "ReIm_ins3_out2_assm_[3,3]_4_1_s13", 
      "attrs": {
        "dim": "1", 
        "num_args": "2"
      }, 
      "inputs": [[887, 0, 0], [896, 0, 0]]
    }, 
    {
      "op": "tile", 
      "name": "tile405", 
      "attrs": {"reps": "(5, 6, 1, 1)"}, 
      "inputs": [[103, 0, 0]]
    }, 
    {
      "op": "BlockGrad", 
      "name": "blockgrad510", 
      "inputs": [[898, 0, 0]]
    }, 
    {
      "op": "_mul_scalar", 
      "name": "_mulscalar322", 
      "attrs": {"scalar": "2"}, 
      "inputs": [[899, 0, 0]]
    }, 
    {
      "op": "tile", 
      "name": "tile404", 
      "attrs": {"reps": "(5, 6, 1, 1)"}, 
      "inputs": [[93, 0, 0]]
    }, 
    {
      "op": "BlockGrad", 
      "name": "blockgrad509", 
      "inputs": [[901, 0, 0]]
    }, 
    {
      "op": "null", 
      "name": "param_1->3_[3,3]_4_1_s13_Ord2_angular_(1,1,6,5)_weight", 
      "inputs": []
    }, 
    {
      "op": "broadcast_mul", 
      "name": "broadcast_mul341", 
      "inputs": [[902, 0, 0], [903, 0, 0]]
    }, 
    {
      "op": "null", 
      "name": "param_1->3_[3,3]_4_1_s13_Ord2_angular_(1,1,6,5)_bias", 
      "inputs": []
    }, 
    {
      "op": "broadcast_add", 
      "name": "broadcast_add319", 
      "inputs": [[904, 0, 0], [905, 0, 0]]
    }, 
    {
      "op": "elemwise_add", 
      "name": "elemwise_add149", 
      "inputs": [[900, 0, 0], [906, 0, 0]]
    }, 
    {
      "op": "cos", 
      "name": "cos127", 
      "inputs": [[907, 0, 0]]
    }, 
    {
      "op": "ones_like", 
      "name": "ones_like127", 
      "inputs": [[902, 0, 0]]
    }, 
    {
      "op": "broadcast_lesser", 
      "name": "broadcast_lesser127", 
      "inputs": [[902, 0, 0], [909, 0, 0]]
    }, 
    {
      "op": "BlockGrad", 
      "name": "blockgrad511", 
      "inputs": [[910, 0, 0]]
    }, 
    {
      "op": "elemwise_mul", 
      "name": "elemwise_mul531", 
      "inputs": [[908, 0, 0], [911, 0, 0]]
    }, 
    {
      "op": "null", 
      "name": "param_1->3_[3,3]_4_1_s13_Ord2_radial_(1,1,6,5)_weight", 
      "inputs": []
    }, 
    {
      "op": "broadcast_mul", 
      "name": "broadcast_mul340", 
      "inputs": [[902, 0, 0], [913, 0, 0]]
    }, 
    {
      "op": "null", 
      "name": "param_1->3_[3,3]_4_1_s13_Ord2_radial_(1,1,6,5)_bias", 
      "inputs": []
    }, 
    {
      "op": "broadcast_add", 
      "name": "broadcast_add318", 
      "inputs": [[914, 0, 0], [915, 0, 0]]
    }, 
    {
      "op": "_mul_scalar", 
      "name": "_mulscalar321", 
      "attrs": {"scalar": "100"}, 
      "inputs": [[916, 0, 0]]
    }, 
    {
      "op": "tanh", 
      "name": "tanh191", 
      "inputs": [[917, 0, 0]]
    }, 
    {
      "op": "elemwise_mul", 
      "name": "_mul191", 
      "inputs": [[916, 0, 0], [918, 0, 0]]
    }, 
    {
      "op": "elemwise_mul", 
      "name": "elemwise_mul533", 
      "inputs": [[912, 0, 0], [919, 0, 0]]
    }, 
    {
      "op": "tile", 
      "name": "tile411", 
      "attrs": {"reps": "(5, 10, 1, 1)"}, 
      "inputs": [[103, 0, 0]]
    }, 
    {
      "op": "BlockGrad", 
      "name": "blockgrad518", 
      "inputs": [[921, 0, 0]]
    }, 
    {
      "op": "_mul_scalar", 
      "name": "_mulscalar327", 
      "attrs": {"scalar": "1"}, 
      "inputs": [[922, 0, 0]]
    }, 
    {
      "op": "tile", 
      "name": "tile410", 
      "attrs": {"reps": "(5, 10, 1, 1)"}, 
      "inputs": [[93, 0, 0]]
    }, 
    {
      "op": "BlockGrad", 
      "name": "blockgrad517", 
      "inputs": [[924, 0, 0]]
    }, 
    {
      "op": "null", 
      "name": "param_2->3_[3,3]_4_1_s13_Ord1_angular_(1,1,10,5)_weight", 
      "inputs": []
    }, 
    {
      "op": "broadcast_mul", 
      "name": "broadcast_mul346", 
      "inputs": [[925, 0, 0], [926, 0, 0]]
    }, 
    {
      "op": "null", 
      "name": "param_2->3_[3,3]_4_1_s13_Ord1_angular_(1,1,10,5)_bias", 
      "inputs": []
    }, 
    {
      "op": "broadcast_add", 
      "name": "broadcast_add324", 
      "inputs": [[927, 0, 0], [928, 0, 0]]
    }, 
    {
      "op": "elemwise_add", 
      "name": "elemwise_add151", 
      "inputs": [[923, 0, 0], [929, 0, 0]]
    }, 
    {
      "op": "cos", 
      "name": "cos129", 
      "inputs": [[930, 0, 0]]
    }, 
    {
      "op": "ones_like", 
      "name": "ones_like129", 
      "inputs": [[925, 0, 0]]
    }, 
    {
      "op": "broadcast_lesser", 
      "name": "broadcast_lesser129", 
      "inputs": [[925, 0, 0], [932, 0, 0]]
    }, 
    {
      "op": "BlockGrad", 
      "name": "blockgrad519", 
      "inputs": [[933, 0, 0]]
    }, 
    {
      "op": "elemwise_mul", 
      "name": "elemwise_mul539", 
      "inputs": [[931, 0, 0], [934, 0, 0]]
    }, 
    {
      "op": "null", 
      "name": "param_2->3_[3,3]_4_1_s13_Ord1_radial_(1,1,10,5)_weight", 
      "inputs": []
    }, 
    {
      "op": "broadcast_mul", 
      "name": "broadcast_mul345", 
      "inputs": [[925, 0, 0], [936, 0, 0]]
    }, 
    {
      "op": "null", 
      "name": "param_2->3_[3,3]_4_1_s13_Ord1_radial_(1,1,10,5)_bias", 
      "inputs": []
    }, 
    {
      "op": "broadcast_add", 
      "name": "broadcast_add323", 
      "inputs": [[937, 0, 0], [938, 0, 0]]
    }, 
    {
      "op": "_mul_scalar", 
      "name": "_mulscalar326", 
      "attrs": {"scalar": "100"}, 
      "inputs": [[939, 0, 0]]
    }, 
    {
      "op": "tanh", 
      "name": "tanh194", 
      "inputs": [[940, 0, 0]]
    }, 
    {
      "op": "elemwise_mul", 
      "name": "_mul194", 
      "inputs": [[939, 0, 0], [941, 0, 0]]
    }, 
    {
      "op": "elemwise_mul", 
      "name": "elemwise_mul541", 
      "inputs": [[935, 0, 0], [942, 0, 0]]
    }, 
    {
      "op": "tile", 
      "name": "tile416", 
      "attrs": {"reps": "(5, 5, 1, 1)"}, 
      "inputs": [[93, 0, 0]]
    }, 
    {
      "op": "BlockGrad", 
      "name": "blockgrad526", 
      "inputs": [[944, 0, 0]]
    }, 
    {
      "op": "null", 
      "name": "param_3->3_[3,3]_4_1_s13_Ord0_radial_(1,1,5,5)_weight", 
      "inputs": []
    }, 
    {
      "op": "broadcast_mul", 
      "name": "broadcast_mul351", 
      "inputs": [[945, 0, 0], [946, 0, 0]]
    }, 
    {
      "op": "null", 
      "name": "param_3->3_[3,3]_4_1_s13_Ord0_radial_(1,1,5,5)_bias", 
      "inputs": []
    }, 
    {
      "op": "broadcast_add", 
      "name": "broadcast_add329", 
      "inputs": [[947, 0, 0], [948, 0, 0]]
    }, 
    {
      "op": "_mul_scalar", 
      "name": "_mulscalar332", 
      "attrs": {"scalar": "100"}, 
      "inputs": [[949, 0, 0]]
    }, 
    {
      "op": "tanh", 
      "name": "tanh197", 
      "inputs": [[950, 0, 0]]
    }, 
    {
      "op": "elemwise_mul", 
      "name": "_mul197", 
      "inputs": [[949, 0, 0], [951, 0, 0]]
    }, 
    {
      "op": "Concat", 
      "name": "sort_ins3_out3_Re_assm_[3,3]_4_1_s13", 
      "attrs": {
        "dim": "1", 
        "num_args": "3"
      }, 
      "inputs": [[920, 0, 0], [943, 0, 0], [952, 0, 0]]
    }, 
    {
      "op": "sin", 
      "name": "sin127", 
      "inputs": [[907, 0, 0]]
    }, 
    {
      "op": "elemwise_mul", 
      "name": "elemwise_mul530", 
      "inputs": [[954, 0, 0], [911, 0, 0]]
    }, 
    {
      "op": "elemwise_mul", 
      "name": "elemwise_mul532", 
      "inputs": [[955, 0, 0], [919, 0, 0]]
    }, 
    {
      "op": "sin", 
      "name": "sin129", 
      "inputs": [[930, 0, 0]]
    }, 
    {
      "op": "elemwise_mul", 
      "name": "elemwise_mul538", 
      "inputs": [[957, 0, 0], [934, 0, 0]]
    }, 
    {
      "op": "elemwise_mul", 
      "name": "elemwise_mul540", 
      "inputs": [[958, 0, 0], [942, 0, 0]]
    }, 
    {
      "op": "zeros_like", 
      "name": "zeros_like65", 
      "inputs": [[952, 0, 0]]
    }, 
    {
      "op": "Concat", 
      "name": "sort_ins3_out3_Im_assm_[3,3]_4_1_s13", 
      "attrs": {
        "dim": "1", 
        "num_args": "3"
      }, 
      "inputs": [[956, 0, 0], [959, 0, 0], [960, 0, 0]]
    }, 
    {
      "op": "Concat", 
      "name": "ReIm_ins3_out3_assm_[3,3]_4_1_s13", 
      "attrs": {
        "dim": "1", 
        "num_args": "2"
      }, 
      "inputs": [[953, 0, 0], [961, 0, 0]]
    }, 
    {
      "op": "negative", 
      "name": "negative125", 
      "inputs": [[830, 0, 0]]
    }, 
    {
      "op": "Concat", 
      "name": "ImRe_ins3_out1_assm_[3,3]_4_1_s13", 
      "attrs": {
        "dim": "1", 
        "num_args": "2"
      }, 
      "inputs": [[963, 0, 0], [820, 0, 0]]
    }, 
    {
      "op": "negative", 
      "name": "negative127", 
      "inputs": [[896, 0, 0]]
    }, 
    {
      "op": "Concat", 
      "name": "ImRe_ins3_out2_assm_[3,3]_4_1_s13", 
      "attrs": {
        "dim": "1", 
        "num_args": "2"
      }, 
      "inputs": [[965, 0, 0], [887, 0, 0]]
    }, 
    {
      "op": "negative", 
      "name": "negative128", 
      "inputs": [[961, 0, 0]]
    }, 
    {
      "op": "Concat", 
      "name": "ImRe_ins3_out3_assm_[3,3]_4_1_s13", 
      "attrs": {
        "dim": "1", 
        "num_args": "2"
      }, 
      "inputs": [[967, 0, 0], [953, 0, 0]]
    }, 
    {
      "op": "Concat", 
      "name": "assembledFilter_in3_out3_assm_[3,3]_4_1_s13", 
      "attrs": {
        "dim": "0", 
        "num_args": "6"
      }, 
      "inputs": [[831, 0, 0], [897, 0, 0], [962, 0, 0], [964, 0, 0], [966, 0, 0], [968, 0, 0]]
    }, 
    {
      "op": "Convolution", 
      "name": "conv_[3,3]_4_1_s13", 
      "attrs": {
        "dilate": "(2, 2)", 
        "kernel": "(3, 3)", 
        "no_bias": "1", 
        "num_filter": "42", 
        "pad": "(0, 0)", 
        "stride": "(1, 1)"
      }, 
      "inputs": [[764, 0, 0], [969, 0, 0]]
    }, 
    {
      "op": "square", 
      "name": "square44", 
      "inputs": [[970, 0, 0]]
    }, 
    {
      "op": "SliceChannel", 
      "name": "split22", 
      "attrs": {
        "axis": "1", 
        "num_outputs": "2"
      }, 
      "inputs": [[971, 0, 0]]
    }, 
    {
      "op": "elemwise_add", 
      "name": "elemwise_add154", 
      "inputs": [[972, 0, 0], [972, 1, 0]]
    }, 
    {
      "op": "_plus_scalar", 
      "name": "_plusscalar67", 
      "attrs": {"scalar": "2e-05"}, 
      "inputs": [[973, 0, 0]]
    }, 
    {
      "op": "sqrt", 
      "name": "sqrt44", 
      "inputs": [[974, 0, 0]]
    }, 
    {
      "op": "square", 
      "name": "square45", 
      "inputs": [[975, 0, 0]]
    }, 
    {
      "op": "_plus_scalar", 
      "name": "_plusscalar69", 
      "attrs": {"scalar": "1"}, 
      "inputs": [[976, 0, 0]]
    }, 
    {
      "op": "sqrt", 
      "name": "sqrt45", 
      "inputs": [[977, 0, 0]]
    }, 
    {
      "op": "elemwise_div", 
      "name": "_div44", 
      "inputs": [[975, 0, 0], [978, 0, 0]]
    }, 
    {
      "op": "null", 
      "name": "4_1_s13_(1,1,21,1)_mag_weight", 
      "inputs": []
    }, 
    {
      "op": "LeakyReLU", 
      "name": "leakyrelu22", 
      "attrs": {
        "act_type": "elu", 
        "slope": "1"
      }, 
      "inputs": [[980, 0, 0]]
    }, 
    {
      "op": "_plus_scalar", 
      "name": "_plusscalar68", 
      "attrs": {"scalar": "1"}, 
      "inputs": [[981, 0, 0]]
    }, 
    {
      "op": "broadcast_mul", 
      "name": "broadcast_mul352", 
      "inputs": [[979, 0, 0], [982, 0, 0]]
    }, 
    {
      "op": "elemwise_div", 
      "name": "_div45", 
      "inputs": [[983, 0, 0], [975, 0, 0]]
    }, 
    {
      "op": "tile", 
      "name": "tile418", 
      "attrs": {"reps": "(1, 2, 1, 1)"}, 
      "inputs": [[984, 0, 0]]
    }, 
    {
      "op": "elemwise_mul", 
      "name": "elemwise_mul550", 
      "inputs": [[970, 0, 0], [985, 0, 0]]
    }, 
    {
      "op": "Pad", 
      "name": "pad23", 
      "attrs": {
        "mode": "edge", 
        "pad_width": "(0, 0, 0, 0, 2, 2, 2, 2)"
      }, 
      "inputs": [[986, 0, 0]]
    }, 
    {
      "op": "tile", 
      "name": "tile419", 
      "attrs": {"reps": "(6, 6, 1, 1)"}, 
      "inputs": [[93, 0, 0]]
    }, 
    {
      "op": "BlockGrad", 
      "name": "blockgrad528", 
      "inputs": [[988, 0, 0]]
    }, 
    {
      "op": "null", 
      "name": "param_1->1_[3,3]_4_2_s39_Ord0_radial_(1,1,6,6)_weight", 
      "inputs": []
    }, 
    {
      "op": "broadcast_mul", 
      "name": "broadcast_mul353", 
      "inputs": [[989, 0, 0], [990, 0, 0]]
    }, 
    {
      "op": "null", 
      "name": "param_1->1_[3,3]_4_2_s39_Ord0_radial_(1,1,6,6)_bias", 
      "inputs": []
    }, 
    {
      "op": "broadcast_add", 
      "name": "broadcast_add330", 
      "inputs": [[991, 0, 0], [992, 0, 0]]
    }, 
    {
      "op": "_mul_scalar", 
      "name": "_mulscalar333", 
      "attrs": {"scalar": "100"}, 
      "inputs": [[993, 0, 0]]
    }, 
    {
      "op": "tanh", 
      "name": "tanh198", 
      "inputs": [[994, 0, 0]]
    }, 
    {
      "op": "elemwise_mul", 
      "name": "_mul198", 
      "inputs": [[993, 0, 0], [995, 0, 0]]
    }, 
    {
      "op": "tile", 
      "name": "tile426", 
      "attrs": {"reps": "(6, 10, 1, 1)"}, 
      "inputs": [[103, 0, 0]]
    }, 
    {
      "op": "BlockGrad", 
      "name": "blockgrad537", 
      "inputs": [[997, 0, 0]]
    }, 
    {
      "op": "_mul_scalar", 
      "name": "_mulscalar339", 
      "attrs": {"scalar": "1"}, 
      "inputs": [[998, 0, 0]]
    }, 
    {
      "op": "tile", 
      "name": "tile425", 
      "attrs": {"reps": "(6, 10, 1, 1)"}, 
      "inputs": [[93, 0, 0]]
    }, 
    {
      "op": "BlockGrad", 
      "name": "blockgrad536", 
      "inputs": [[1000, 0, 0]]
    }, 
    {
      "op": "null", 
      "name": "param_2->1_[3,3]_4_2_s39_Ord1_angular_(1,1,10,6)_weight", 
      "inputs": []
    }, 
    {
      "op": "broadcast_mul", 
      "name": "broadcast_mul359", 
      "inputs": [[1001, 0, 0], [1002, 0, 0]]
    }, 
    {
      "op": "null", 
      "name": "param_2->1_[3,3]_4_2_s39_Ord1_angular_(1,1,10,6)_bias", 
      "inputs": []
    }, 
    {
      "op": "broadcast_add", 
      "name": "broadcast_add336", 
      "inputs": [[1003, 0, 0], [1004, 0, 0]]
    }, 
    {
      "op": "elemwise_add", 
      "name": "elemwise_add157", 
      "inputs": [[999, 0, 0], [1005, 0, 0]]
    }, 
    {
      "op": "cos", 
      "name": "cos134", 
      "inputs": [[1006, 0, 0]]
    }, 
    {
      "op": "ones_like", 
      "name": "ones_like134", 
      "inputs": [[1001, 0, 0]]
    }, 
    {
      "op": "broadcast_lesser", 
      "name": "broadcast_lesser134", 
      "inputs": [[1001, 0, 0], [1008, 0, 0]]
    }, 
    {
      "op": "BlockGrad", 
      "name": "blockgrad538", 
      "inputs": [[1009, 0, 0]]
    }, 
    {
      "op": "elemwise_mul", 
      "name": "elemwise_mul560", 
      "inputs": [[1007, 0, 0], [1010, 0, 0]]
    }, 
    {
      "op": "null", 
      "name": "param_2->1_[3,3]_4_2_s39_Ord1_radial_(1,1,10,6)_weight", 
      "inputs": []
    }, 
    {
      "op": "broadcast_mul", 
      "name": "broadcast_mul358", 
      "inputs": [[1001, 0, 0], [1012, 0, 0]]
    }, 
    {
      "op": "null", 
      "name": "param_2->1_[3,3]_4_2_s39_Ord1_radial_(1,1,10,6)_bias", 
      "inputs": []
    }, 
    {
      "op": "broadcast_add", 
      "name": "broadcast_add335", 
      "inputs": [[1013, 0, 0], [1014, 0, 0]]
    }, 
    {
      "op": "_mul_scalar", 
      "name": "_mulscalar338", 
      "attrs": {"scalar": "100"}, 
      "inputs": [[1015, 0, 0]]
    }, 
    {
      "op": "tanh", 
      "name": "tanh201", 
      "inputs": [[1016, 0, 0]]
    }, 
    {
      "op": "elemwise_mul", 
      "name": "_mul201", 
      "inputs": [[1015, 0, 0], [1017, 0, 0]]
    }, 
    {
      "op": "elemwise_mul", 
      "name": "elemwise_mul562", 
      "inputs": [[1011, 0, 0], [1018, 0, 0]]
    }, 
    {
      "op": "tile", 
      "name": "tile432", 
      "attrs": {"reps": "(6, 5, 1, 1)"}, 
      "inputs": [[103, 0, 0]]
    }, 
    {
      "op": "BlockGrad", 
      "name": "blockgrad545", 
      "inputs": [[1020, 0, 0]]
    }, 
    {
      "op": "_mul_scalar", 
      "name": "_mulscalar344", 
      "attrs": {"scalar": "2"}, 
      "inputs": [[1021, 0, 0]]
    }, 
    {
      "op": "tile", 
      "name": "tile431", 
      "attrs": {"reps": "(6, 5, 1, 1)"}, 
      "inputs": [[93, 0, 0]]
    }, 
    {
      "op": "BlockGrad", 
      "name": "blockgrad544", 
      "inputs": [[1023, 0, 0]]
    }, 
    {
      "op": "null", 
      "name": "param_3->1_[3,3]_4_2_s39_Ord2_angular_(1,1,5,6)_weight", 
      "inputs": []
    }, 
    {
      "op": "broadcast_mul", 
      "name": "broadcast_mul364", 
      "inputs": [[1024, 0, 0], [1025, 0, 0]]
    }, 
    {
      "op": "null", 
      "name": "param_3->1_[3,3]_4_2_s39_Ord2_angular_(1,1,5,6)_bias", 
      "inputs": []
    }, 
    {
      "op": "broadcast_add", 
      "name": "broadcast_add341", 
      "inputs": [[1026, 0, 0], [1027, 0, 0]]
    }, 
    {
      "op": "elemwise_add", 
      "name": "elemwise_add159", 
      "inputs": [[1022, 0, 0], [1028, 0, 0]]
    }, 
    {
      "op": "cos", 
      "name": "cos136", 
      "inputs": [[1029, 0, 0]]
    }, 
    {
      "op": "ones_like", 
      "name": "ones_like136", 
      "inputs": [[1024, 0, 0]]
    }, 
    {
      "op": "broadcast_lesser", 
      "name": "broadcast_lesser136", 
      "inputs": [[1024, 0, 0], [1031, 0, 0]]
    }, 
    {
      "op": "BlockGrad", 
      "name": "blockgrad546", 
      "inputs": [[1032, 0, 0]]
    }, 
    {
      "op": "elemwise_mul", 
      "name": "elemwise_mul568", 
      "inputs": [[1030, 0, 0], [1033, 0, 0]]
    }, 
    {
      "op": "null", 
      "name": "param_3->1_[3,3]_4_2_s39_Ord2_radial_(1,1,5,6)_weight", 
      "inputs": []
    }, 
    {
      "op": "broadcast_mul", 
      "name": "broadcast_mul363", 
      "inputs": [[1024, 0, 0], [1035, 0, 0]]
    }, 
    {
      "op": "null", 
      "name": "param_3->1_[3,3]_4_2_s39_Ord2_radial_(1,1,5,6)_bias", 
      "inputs": []
    }, 
    {
      "op": "broadcast_add", 
      "name": "broadcast_add340", 
      "inputs": [[1036, 0, 0], [1037, 0, 0]]
    }, 
    {
      "op": "_mul_scalar", 
      "name": "_mulscalar343", 
      "attrs": {"scalar": "100"}, 
      "inputs": [[1038, 0, 0]]
    }, 
    {
      "op": "tanh", 
      "name": "tanh204", 
      "inputs": [[1039, 0, 0]]
    }, 
    {
      "op": "elemwise_mul", 
      "name": "_mul204", 
      "inputs": [[1038, 0, 0], [1040, 0, 0]]
    }, 
    {
      "op": "elemwise_mul", 
      "name": "elemwise_mul570", 
      "inputs": [[1034, 0, 0], [1041, 0, 0]]
    }, 
    {
      "op": "Concat", 
      "name": "sort_ins3_out1_Re_assm_[3,3]_4_2_s39", 
      "attrs": {
        "dim": "1", 
        "num_args": "3"
      }, 
      "inputs": [[996, 0, 0], [1019, 0, 0], [1042, 0, 0]]
    }, 
    {
      "op": "zeros_like", 
      "name": "zeros_like66", 
      "inputs": [[996, 0, 0]]
    }, 
    {
      "op": "sin", 
      "name": "sin134", 
      "inputs": [[1006, 0, 0]]
    }, 
    {
      "op": "elemwise_mul", 
      "name": "elemwise_mul559", 
      "inputs": [[1045, 0, 0], [1010, 0, 0]]
    }, 
    {
      "op": "elemwise_mul", 
      "name": "elemwise_mul561", 
      "inputs": [[1046, 0, 0], [1018, 0, 0]]
    }, 
    {
      "op": "negative", 
      "name": "negative129", 
      "inputs": [[1047, 0, 0]]
    }, 
    {
      "op": "sin", 
      "name": "sin136", 
      "inputs": [[1029, 0, 0]]
    }, 
    {
      "op": "elemwise_mul", 
      "name": "elemwise_mul567", 
      "inputs": [[1049, 0, 0], [1033, 0, 0]]
    }, 
    {
      "op": "elemwise_mul", 
      "name": "elemwise_mul569", 
      "inputs": [[1050, 0, 0], [1041, 0, 0]]
    }, 
    {
      "op": "negative", 
      "name": "negative130", 
      "inputs": [[1051, 0, 0]]
    }, 
    {
      "op": "Concat", 
      "name": "sort_ins3_out1_Im_assm_[3,3]_4_2_s39", 
      "attrs": {
        "dim": "1", 
        "num_args": "3"
      }, 
      "inputs": [[1044, 0, 0], [1048, 0, 0], [1052, 0, 0]]
    }, 
    {
      "op": "Concat", 
      "name": "ReIm_ins3_out1_assm_[3,3]_4_2_s39", 
      "attrs": {
        "dim": "1", 
        "num_args": "2"
      }, 
      "inputs": [[1043, 0, 0], [1053, 0, 0]]
    }, 
    {
      "op": "tile", 
      "name": "tile422", 
      "attrs": {"reps": "(10, 6, 1, 1)"}, 
      "inputs": [[103, 0, 0]]
    }, 
    {
      "op": "BlockGrad", 
      "name": "blockgrad531", 
      "inputs": [[1055, 0, 0]]
    }, 
    {
      "op": "_mul_scalar", 
      "name": "_mulscalar335", 
      "attrs": {"scalar": "1"}, 
      "inputs": [[1056, 0, 0]]
    }, 
    {
      "op": "tile", 
      "name": "tile421", 
      "attrs": {"reps": "(10, 6, 1, 1)"}, 
      "inputs": [[93, 0, 0]]
    }, 
    {
      "op": "BlockGrad", 
      "name": "blockgrad530", 
      "inputs": [[1058, 0, 0]]
    }, 
    {
      "op": "null", 
      "name": "param_1->2_[3,3]_4_2_s39_Ord1_angular_(1,1,6,10)_weight", 
      "inputs": []
    }, 
    {
      "op": "broadcast_mul", 
      "name": "broadcast_mul355", 
      "inputs": [[1059, 0, 0], [1060, 0, 0]]
    }, 
    {
      "op": "null", 
      "name": "param_1->2_[3,3]_4_2_s39_Ord1_angular_(1,1,6,10)_bias", 
      "inputs": []
    }, 
    {
      "op": "broadcast_add", 
      "name": "broadcast_add332", 
      "inputs": [[1061, 0, 0], [1062, 0, 0]]
    }, 
    {
      "op": "elemwise_add", 
      "name": "elemwise_add155", 
      "inputs": [[1057, 0, 0], [1063, 0, 0]]
    }, 
    {
      "op": "cos", 
      "name": "cos132", 
      "inputs": [[1064, 0, 0]]
    }, 
    {
      "op": "ones_like", 
      "name": "ones_like132", 
      "inputs": [[1059, 0, 0]]
    }, 
    {
      "op": "broadcast_lesser", 
      "name": "broadcast_lesser132", 
      "inputs": [[1059, 0, 0], [1066, 0, 0]]
    }, 
    {
      "op": "BlockGrad", 
      "name": "blockgrad532", 
      "inputs": [[1067, 0, 0]]
    }, 
    {
      "op": "elemwise_mul", 
      "name": "elemwise_mul552", 
      "inputs": [[1065, 0, 0], [1068, 0, 0]]
    }, 
    {
      "op": "null", 
      "name": "param_1->2_[3,3]_4_2_s39_Ord1_radial_(1,1,6,10)_weight", 
      "inputs": []
    }, 
    {
      "op": "broadcast_mul", 
      "name": "broadcast_mul354", 
      "inputs": [[1059, 0, 0], [1070, 0, 0]]
    }, 
    {
      "op": "null", 
      "name": "param_1->2_[3,3]_4_2_s39_Ord1_radial_(1,1,6,10)_bias", 
      "inputs": []
    }, 
    {
      "op": "broadcast_add", 
      "name": "broadcast_add331", 
      "inputs": [[1071, 0, 0], [1072, 0, 0]]
    }, 
    {
      "op": "_mul_scalar", 
      "name": "_mulscalar334", 
      "attrs": {"scalar": "100"}, 
      "inputs": [[1073, 0, 0]]
    }, 
    {
      "op": "tanh", 
      "name": "tanh199", 
      "inputs": [[1074, 0, 0]]
    }, 
    {
      "op": "elemwise_mul", 
      "name": "_mul199", 
      "inputs": [[1073, 0, 0], [1075, 0, 0]]
    }, 
    {
      "op": "elemwise_mul", 
      "name": "elemwise_mul554", 
      "inputs": [[1069, 0, 0], [1076, 0, 0]]
    }, 
    {
      "op": "tile", 
      "name": "tile427", 
      "attrs": {"reps": "(10, 10, 1, 1)"}, 
      "inputs": [[93, 0, 0]]
    }, 
    {
      "op": "BlockGrad", 
      "name": "blockgrad539", 
      "inputs": [[1078, 0, 0]]
    }, 
    {
      "op": "null", 
      "name": "param_2->2_[3,3]_4_2_s39_Ord0_radial_(1,1,10,10)_weight", 
      "inputs": []
    }, 
    {
      "op": "broadcast_mul", 
      "name": "broadcast_mul360", 
      "inputs": [[1079, 0, 0], [1080, 0, 0]]
    }, 
    {
      "op": "null", 
      "name": "param_2->2_[3,3]_4_2_s39_Ord0_radial_(1,1,10,10)_bias", 
      "inputs": []
    }, 
    {
      "op": "broadcast_add", 
      "name": "broadcast_add337", 
      "inputs": [[1081, 0, 0], [1082, 0, 0]]
    }, 
    {
      "op": "_mul_scalar", 
      "name": "_mulscalar340", 
      "attrs": {"scalar": "100"}, 
      "inputs": [[1083, 0, 0]]
    }, 
    {
      "op": "tanh", 
      "name": "tanh202", 
      "inputs": [[1084, 0, 0]]
    }, 
    {
      "op": "elemwise_mul", 
      "name": "_mul202", 
      "inputs": [[1083, 0, 0], [1085, 0, 0]]
    }, 
    {
      "op": "tile", 
      "name": "tile434", 
      "attrs": {"reps": "(10, 5, 1, 1)"}, 
      "inputs": [[103, 0, 0]]
    }, 
    {
      "op": "BlockGrad", 
      "name": "blockgrad548", 
      "inputs": [[1087, 0, 0]]
    }, 
    {
      "op": "_mul_scalar", 
      "name": "_mulscalar346", 
      "attrs": {"scalar": "1"}, 
      "inputs": [[1088, 0, 0]]
    }, 
    {
      "op": "tile", 
      "name": "tile433", 
      "attrs": {"reps": "(10, 5, 1, 1)"}, 
      "inputs": [[93, 0, 0]]
    }, 
    {
      "op": "BlockGrad", 
      "name": "blockgrad547", 
      "inputs": [[1090, 0, 0]]
    }, 
    {
      "op": "null", 
      "name": "param_3->2_[3,3]_4_2_s39_Ord1_angular_(1,1,5,10)_weight", 
      "inputs": []
    }, 
    {
      "op": "broadcast_mul", 
      "name": "broadcast_mul366", 
      "inputs": [[1091, 0, 0], [1092, 0, 0]]
    }, 
    {
      "op": "null", 
      "name": "param_3->2_[3,3]_4_2_s39_Ord1_angular_(1,1,5,10)_bias", 
      "inputs": []
    }, 
    {
      "op": "broadcast_add", 
      "name": "broadcast_add343", 
      "inputs": [[1093, 0, 0], [1094, 0, 0]]
    }, 
    {
      "op": "elemwise_add", 
      "name": "elemwise_add160", 
      "inputs": [[1089, 0, 0], [1095, 0, 0]]
    }, 
    {
      "op": "cos", 
      "name": "cos137", 
      "inputs": [[1096, 0, 0]]
    }, 
    {
      "op": "ones_like", 
      "name": "ones_like137", 
      "inputs": [[1091, 0, 0]]
    }, 
    {
      "op": "broadcast_lesser", 
      "name": "broadcast_lesser137", 
      "inputs": [[1091, 0, 0], [1098, 0, 0]]
    }, 
    {
      "op": "BlockGrad", 
      "name": "blockgrad549", 
      "inputs": [[1099, 0, 0]]
    }, 
    {
      "op": "elemwise_mul", 
      "name": "elemwise_mul572", 
      "inputs": [[1097, 0, 0], [1100, 0, 0]]
    }, 
    {
      "op": "null", 
      "name": "param_3->2_[3,3]_4_2_s39_Ord1_radial_(1,1,5,10)_weight", 
      "inputs": []
    }, 
    {
      "op": "broadcast_mul", 
      "name": "broadcast_mul365", 
      "inputs": [[1091, 0, 0], [1102, 0, 0]]
    }, 
    {
      "op": "null", 
      "name": "param_3->2_[3,3]_4_2_s39_Ord1_radial_(1,1,5,10)_bias", 
      "inputs": []
    }, 
    {
      "op": "broadcast_add", 
      "name": "broadcast_add342", 
      "inputs": [[1103, 0, 0], [1104, 0, 0]]
    }, 
    {
      "op": "_mul_scalar", 
      "name": "_mulscalar345", 
      "attrs": {"scalar": "100"}, 
      "inputs": [[1105, 0, 0]]
    }, 
    {
      "op": "tanh", 
      "name": "tanh205", 
      "inputs": [[1106, 0, 0]]
    }, 
    {
      "op": "elemwise_mul", 
      "name": "_mul205", 
      "inputs": [[1105, 0, 0], [1107, 0, 0]]
    }, 
    {
      "op": "elemwise_mul", 
      "name": "elemwise_mul574", 
      "inputs": [[1101, 0, 0], [1108, 0, 0]]
    }, 
    {
      "op": "Concat", 
      "name": "sort_ins3_out2_Re_assm_[3,3]_4_2_s39", 
      "attrs": {
        "dim": "1", 
        "num_args": "3"
      }, 
      "inputs": [[1077, 0, 0], [1086, 0, 0], [1109, 0, 0]]
    }, 
    {
      "op": "sin", 
      "name": "sin132", 
      "inputs": [[1064, 0, 0]]
    }, 
    {
      "op": "elemwise_mul", 
      "name": "elemwise_mul551", 
      "inputs": [[1111, 0, 0], [1068, 0, 0]]
    }, 
    {
      "op": "elemwise_mul", 
      "name": "elemwise_mul553", 
      "inputs": [[1112, 0, 0], [1076, 0, 0]]
    }, 
    {
      "op": "zeros_like", 
      "name": "zeros_like67", 
      "inputs": [[1086, 0, 0]]
    }, 
    {
      "op": "sin", 
      "name": "sin137", 
      "inputs": [[1096, 0, 0]]
    }, 
    {
      "op": "elemwise_mul", 
      "name": "elemwise_mul571", 
      "inputs": [[1115, 0, 0], [1100, 0, 0]]
    }, 
    {
      "op": "elemwise_mul", 
      "name": "elemwise_mul573", 
      "inputs": [[1116, 0, 0], [1108, 0, 0]]
    }, 
    {
      "op": "negative", 
      "name": "negative132", 
      "inputs": [[1117, 0, 0]]
    }, 
    {
      "op": "Concat", 
      "name": "sort_ins3_out2_Im_assm_[3,3]_4_2_s39", 
      "attrs": {
        "dim": "1", 
        "num_args": "3"
      }, 
      "inputs": [[1113, 0, 0], [1114, 0, 0], [1118, 0, 0]]
    }, 
    {
      "op": "Concat", 
      "name": "ReIm_ins3_out2_assm_[3,3]_4_2_s39", 
      "attrs": {
        "dim": "1", 
        "num_args": "2"
      }, 
      "inputs": [[1110, 0, 0], [1119, 0, 0]]
    }, 
    {
      "op": "tile", 
      "name": "tile424", 
      "attrs": {"reps": "(5, 6, 1, 1)"}, 
      "inputs": [[103, 0, 0]]
    }, 
    {
      "op": "BlockGrad", 
      "name": "blockgrad534", 
      "inputs": [[1121, 0, 0]]
    }, 
    {
      "op": "_mul_scalar", 
      "name": "_mulscalar337", 
      "attrs": {"scalar": "2"}, 
      "inputs": [[1122, 0, 0]]
    }, 
    {
      "op": "tile", 
      "name": "tile423", 
      "attrs": {"reps": "(5, 6, 1, 1)"}, 
      "inputs": [[93, 0, 0]]
    }, 
    {
      "op": "BlockGrad", 
      "name": "blockgrad533", 
      "inputs": [[1124, 0, 0]]
    }, 
    {
      "op": "null", 
      "name": "param_1->3_[3,3]_4_2_s39_Ord2_angular_(1,1,6,5)_weight", 
      "inputs": []
    }, 
    {
      "op": "broadcast_mul", 
      "name": "broadcast_mul357", 
      "inputs": [[1125, 0, 0], [1126, 0, 0]]
    }, 
    {
      "op": "null", 
      "name": "param_1->3_[3,3]_4_2_s39_Ord2_angular_(1,1,6,5)_bias", 
      "inputs": []
    }, 
    {
      "op": "broadcast_add", 
      "name": "broadcast_add334", 
      "inputs": [[1127, 0, 0], [1128, 0, 0]]
    }, 
    {
      "op": "elemwise_add", 
      "name": "elemwise_add156", 
      "inputs": [[1123, 0, 0], [1129, 0, 0]]
    }, 
    {
      "op": "cos", 
      "name": "cos133", 
      "inputs": [[1130, 0, 0]]
    }, 
    {
      "op": "ones_like", 
      "name": "ones_like133", 
      "inputs": [[1125, 0, 0]]
    }, 
    {
      "op": "broadcast_lesser", 
      "name": "broadcast_lesser133", 
      "inputs": [[1125, 0, 0], [1132, 0, 0]]
    }, 
    {
      "op": "BlockGrad", 
      "name": "blockgrad535", 
      "inputs": [[1133, 0, 0]]
    }, 
    {
      "op": "elemwise_mul", 
      "name": "elemwise_mul556", 
      "inputs": [[1131, 0, 0], [1134, 0, 0]]
    }, 
    {
      "op": "null", 
      "name": "param_1->3_[3,3]_4_2_s39_Ord2_radial_(1,1,6,5)_weight", 
      "inputs": []
    }, 
    {
      "op": "broadcast_mul", 
      "name": "broadcast_mul356", 
      "inputs": [[1125, 0, 0], [1136, 0, 0]]
    }, 
    {
      "op": "null", 
      "name": "param_1->3_[3,3]_4_2_s39_Ord2_radial_(1,1,6,5)_bias", 
      "inputs": []
    }, 
    {
      "op": "broadcast_add", 
      "name": "broadcast_add333", 
      "inputs": [[1137, 0, 0], [1138, 0, 0]]
    }, 
    {
      "op": "_mul_scalar", 
      "name": "_mulscalar336", 
      "attrs": {"scalar": "100"}, 
      "inputs": [[1139, 0, 0]]
    }, 
    {
      "op": "tanh", 
      "name": "tanh200", 
      "inputs": [[1140, 0, 0]]
    }, 
    {
      "op": "elemwise_mul", 
      "name": "_mul200", 
      "inputs": [[1139, 0, 0], [1141, 0, 0]]
    }, 
    {
      "op": "elemwise_mul", 
      "name": "elemwise_mul558", 
      "inputs": [[1135, 0, 0], [1142, 0, 0]]
    }, 
    {
      "op": "tile", 
      "name": "tile430", 
      "attrs": {"reps": "(5, 10, 1, 1)"}, 
      "inputs": [[103, 0, 0]]
    }, 
    {
      "op": "BlockGrad", 
      "name": "blockgrad542", 
      "inputs": [[1144, 0, 0]]
    }, 
    {
      "op": "_mul_scalar", 
      "name": "_mulscalar342", 
      "attrs": {"scalar": "1"}, 
      "inputs": [[1145, 0, 0]]
    }, 
    {
      "op": "tile", 
      "name": "tile429", 
      "attrs": {"reps": "(5, 10, 1, 1)"}, 
      "inputs": [[93, 0, 0]]
    }, 
    {
      "op": "BlockGrad", 
      "name": "blockgrad541", 
      "inputs": [[1147, 0, 0]]
    }, 
    {
      "op": "null", 
      "name": "param_2->3_[3,3]_4_2_s39_Ord1_angular_(1,1,10,5)_weight", 
      "inputs": []
    }, 
    {
      "op": "broadcast_mul", 
      "name": "broadcast_mul362", 
      "inputs": [[1148, 0, 0], [1149, 0, 0]]
    }, 
    {
      "op": "null", 
      "name": "param_2->3_[3,3]_4_2_s39_Ord1_angular_(1,1,10,5)_bias", 
      "inputs": []
    }, 
    {
      "op": "broadcast_add", 
      "name": "broadcast_add339", 
      "inputs": [[1150, 0, 0], [1151, 0, 0]]
    }, 
    {
      "op": "elemwise_add", 
      "name": "elemwise_add158", 
      "inputs": [[1146, 0, 0], [1152, 0, 0]]
    }, 
    {
      "op": "cos", 
      "name": "cos135", 
      "inputs": [[1153, 0, 0]]
    }, 
    {
      "op": "ones_like", 
      "name": "ones_like135", 
      "inputs": [[1148, 0, 0]]
    }, 
    {
      "op": "broadcast_lesser", 
      "name": "broadcast_lesser135", 
      "inputs": [[1148, 0, 0], [1155, 0, 0]]
    }, 
    {
      "op": "BlockGrad", 
      "name": "blockgrad543", 
      "inputs": [[1156, 0, 0]]
    }, 
    {
      "op": "elemwise_mul", 
      "name": "elemwise_mul564", 
      "inputs": [[1154, 0, 0], [1157, 0, 0]]
    }, 
    {
      "op": "null", 
      "name": "param_2->3_[3,3]_4_2_s39_Ord1_radial_(1,1,10,5)_weight", 
      "inputs": []
    }, 
    {
      "op": "broadcast_mul", 
      "name": "broadcast_mul361", 
      "inputs": [[1148, 0, 0], [1159, 0, 0]]
    }, 
    {
      "op": "null", 
      "name": "param_2->3_[3,3]_4_2_s39_Ord1_radial_(1,1,10,5)_bias", 
      "inputs": []
    }, 
    {
      "op": "broadcast_add", 
      "name": "broadcast_add338", 
      "inputs": [[1160, 0, 0], [1161, 0, 0]]
    }, 
    {
      "op": "_mul_scalar", 
      "name": "_mulscalar341", 
      "attrs": {"scalar": "100"}, 
      "inputs": [[1162, 0, 0]]
    }, 
    {
      "op": "tanh", 
      "name": "tanh203", 
      "inputs": [[1163, 0, 0]]
    }, 
    {
      "op": "elemwise_mul", 
      "name": "_mul203", 
      "inputs": [[1162, 0, 0], [1164, 0, 0]]
    }, 
    {
      "op": "elemwise_mul", 
      "name": "elemwise_mul566", 
      "inputs": [[1158, 0, 0], [1165, 0, 0]]
    }, 
    {
      "op": "tile", 
      "name": "tile435", 
      "attrs": {"reps": "(5, 5, 1, 1)"}, 
      "inputs": [[93, 0, 0]]
    }, 
    {
      "op": "BlockGrad", 
      "name": "blockgrad550", 
      "inputs": [[1167, 0, 0]]
    }, 
    {
      "op": "null", 
      "name": "param_3->3_[3,3]_4_2_s39_Ord0_radial_(1,1,5,5)_weight", 
      "inputs": []
    }, 
    {
      "op": "broadcast_mul", 
      "name": "broadcast_mul367", 
      "inputs": [[1168, 0, 0], [1169, 0, 0]]
    }, 
    {
      "op": "null", 
      "name": "param_3->3_[3,3]_4_2_s39_Ord0_radial_(1,1,5,5)_bias", 
      "inputs": []
    }, 
    {
      "op": "broadcast_add", 
      "name": "broadcast_add344", 
      "inputs": [[1170, 0, 0], [1171, 0, 0]]
    }, 
    {
      "op": "_mul_scalar", 
      "name": "_mulscalar347", 
      "attrs": {"scalar": "100"}, 
      "inputs": [[1172, 0, 0]]
    }, 
    {
      "op": "tanh", 
      "name": "tanh206", 
      "inputs": [[1173, 0, 0]]
    }, 
    {
      "op": "elemwise_mul", 
      "name": "_mul206", 
      "inputs": [[1172, 0, 0], [1174, 0, 0]]
    }, 
    {
      "op": "Concat", 
      "name": "sort_ins3_out3_Re_assm_[3,3]_4_2_s39", 
      "attrs": {
        "dim": "1", 
        "num_args": "3"
      }, 
      "inputs": [[1143, 0, 0], [1166, 0, 0], [1175, 0, 0]]
    }, 
    {
      "op": "sin", 
      "name": "sin133", 
      "inputs": [[1130, 0, 0]]
    }, 
    {
      "op": "elemwise_mul", 
      "name": "elemwise_mul555", 
      "inputs": [[1177, 0, 0], [1134, 0, 0]]
    }, 
    {
      "op": "elemwise_mul", 
      "name": "elemwise_mul557", 
      "inputs": [[1178, 0, 0], [1142, 0, 0]]
    }, 
    {
      "op": "sin", 
      "name": "sin135", 
      "inputs": [[1153, 0, 0]]
    }, 
    {
      "op": "elemwise_mul", 
      "name": "elemwise_mul563", 
      "inputs": [[1180, 0, 0], [1157, 0, 0]]
    }, 
    {
      "op": "elemwise_mul", 
      "name": "elemwise_mul565", 
      "inputs": [[1181, 0, 0], [1165, 0, 0]]
    }, 
    {
      "op": "zeros_like", 
      "name": "zeros_like68", 
      "inputs": [[1175, 0, 0]]
    }, 
    {
      "op": "Concat", 
      "name": "sort_ins3_out3_Im_assm_[3,3]_4_2_s39", 
      "attrs": {
        "dim": "1", 
        "num_args": "3"
      }, 
      "inputs": [[1179, 0, 0], [1182, 0, 0], [1183, 0, 0]]
    }, 
    {
      "op": "Concat", 
      "name": "ReIm_ins3_out3_assm_[3,3]_4_2_s39", 
      "attrs": {
        "dim": "1", 
        "num_args": "2"
      }, 
      "inputs": [[1176, 0, 0], [1184, 0, 0]]
    }, 
    {
      "op": "negative", 
      "name": "negative131", 
      "inputs": [[1053, 0, 0]]
    }, 
    {
      "op": "Concat", 
      "name": "ImRe_ins3_out1_assm_[3,3]_4_2_s39", 
      "attrs": {
        "dim": "1", 
        "num_args": "2"
      }, 
      "inputs": [[1186, 0, 0], [1043, 0, 0]]
    }, 
    {
      "op": "negative", 
      "name": "negative133", 
      "inputs": [[1119, 0, 0]]
    }, 
    {
      "op": "Concat", 
      "name": "ImRe_ins3_out2_assm_[3,3]_4_2_s39", 
      "attrs": {
        "dim": "1", 
        "num_args": "2"
      }, 
      "inputs": [[1188, 0, 0], [1110, 0, 0]]
    }, 
    {
      "op": "negative", 
      "name": "negative134", 
      "inputs": [[1184, 0, 0]]
    }, 
    {
      "op": "Concat", 
      "name": "ImRe_ins3_out3_assm_[3,3]_4_2_s39", 
      "attrs": {
        "dim": "1", 
        "num_args": "2"
      }, 
      "inputs": [[1190, 0, 0], [1176, 0, 0]]
    }, 
    {
      "op": "Concat", 
      "name": "assembledFilter_in3_out3_assm_[3,3]_4_2_s39", 
      "attrs": {
        "dim": "0", 
        "num_args": "6"
      }, 
      "inputs": [[1054, 0, 0], [1120, 0, 0], [1185, 0, 0], [1187, 0, 0], [1189, 0, 0], [1191, 0, 0]]
    }, 
    {
      "op": "Convolution", 
      "name": "conv_[3,3]_4_2_s39", 
      "attrs": {
        "dilate": "(2, 2)", 
        "kernel": "(3, 3)", 
        "no_bias": "1", 
        "num_filter": "42", 
        "pad": "(0, 0)", 
        "stride": "(1, 1)"
      }, 
      "inputs": [[987, 0, 0], [1192, 0, 0]]
    }, 
    {
      "op": "square", 
      "name": "square46", 
      "inputs": [[1193, 0, 0]]
    }, 
    {
      "op": "SliceChannel", 
      "name": "split23", 
      "attrs": {
        "axis": "1", 
        "num_outputs": "2"
      }, 
      "inputs": [[1194, 0, 0]]
    }, 
    {
      "op": "elemwise_add", 
      "name": "elemwise_add161", 
      "inputs": [[1195, 0, 0], [1195, 1, 0]]
    }, 
    {
      "op": "_plus_scalar", 
      "name": "_plusscalar70", 
      "attrs": {"scalar": "2e-05"}, 
      "inputs": [[1196, 0, 0]]
    }, 
    {
      "op": "sqrt", 
      "name": "sqrt46", 
      "inputs": [[1197, 0, 0]]
    }, 
    {
      "op": "square", 
      "name": "square47", 
      "inputs": [[1198, 0, 0]]
    }, 
    {
      "op": "_plus_scalar", 
      "name": "_plusscalar72", 
      "attrs": {"scalar": "1"}, 
      "inputs": [[1199, 0, 0]]
    }, 
    {
      "op": "sqrt", 
      "name": "sqrt47", 
      "inputs": [[1200, 0, 0]]
    }, 
    {
      "op": "elemwise_div", 
      "name": "_div46", 
      "inputs": [[1198, 0, 0], [1201, 0, 0]]
    }, 
    {
      "op": "null", 
…
      "inputs": [[3972, 0, 0]]
    }, 
    {
      "op": "null", 
      "name": "anchor_moving_mean", 
      "attrs": {
        "__init__": "[\"zero\", {}]", 
        "eps": "2e-05", 
        "fix_gamma": "0", 
        "momentum": "0.9", 
        "use_global_stats": "0"
      }, 
      "inputs": []
    }, 
    {
      "op": "null", 
      "name": "anchor_moving_var", 
      "attrs": {
        "__init__": "[\"one\", {}]", 
        "eps": "2e-05", 
        "fix_gamma": "0", 
        "momentum": "0.9", 
        "use_global_stats": "0"
      }, 
      "inputs": []
    }, 
    {
      "op": "BatchNorm", 
      "name": "anchor", 
      "attrs": {
        "eps": "2e-05", 
        "fix_gamma": "0", 
        "momentum": "0.9", 
        "use_global_stats": "0"
      }, 
      "inputs": [[3967, 0, 0], [3971, 0, 0], [3973, 0, 0], [3974, 0, 1], [3975, 0, 1]]
    }, 
    {
      "op": "exp", 
      "name": "exp1", 
      "inputs": [[3976, 0, 0]]
    }, 
    {
      "op": "sum", 
      "name": "sum1", 
      "attrs": {
        "axis": "1", 
        "keepdims": "1"
      }, 
      "inputs": [[3977, 0, 0]]
    }, 
    {
      "op": "broadcast_div", 
      "name": "softmax", 
      "inputs": [[3977, 0, 0], [3978, 0, 0]]
    }
  ], 
  "arg_nodes": [
    0, 
    4, 
    7, 
    9, 
    15, 
    21, 
    23, 
    31, 
    33, 
    45, 
    47, 
    55, 
    57, 
    85, 
    93, 
    96, 
    98, 
    103, 
    109, 
    111, 
    119, 
    121, 
    132, 
    134, 
    142, 
    144, 
    167, 
    169, 
    177, 
    179, 
    187, 
    189, 
    199, 
    201, 
    209, 
    211, 
    233, 
    235, 
    243, 
    245, 
    256, 
    258, 
    266, 
    268, 
    276, 
    278, 
    310, 
    320, 
    322, 
    332, 
    334, 
    342, 
    344, 
    355, 
    357, 
    365, 
    367, 
    390, 
    392, 
    400, 
    402, 
    410, 
    412, 
    422, 
    424, 
    432, 
    434, 
    456, 
    458, 
    466, 
    468, 
    479, 
    481, 
    489, 
    491, 
    499, 
    501, 
    533, 
    543, 
    545, 
    555, 
    557, 
    565, 
    567, 
    578, 
    580, 
    588, 
    590, 
    613, 
    615, 
    623, 
    625, 
    633, 
    635, 
    645, 
    647, 
    655, 
    657, 
    679, 
    681, 
    689, 
    691, 
    702, 
    704, 
    712, 
    714, 
    722, 
    724, 
    756, 
    767, 
    769, 
    779, 
    781, 
    789, 
    791, 
    802, 
    804, 
    812, 
    814, 
    837, 
    839, 
    847, 
    849, 
    857, 
    859, 
    869, 
    871, 
    879, 
    881, 
    903, 
    905, 
    913, 
    915, 
    926, 
    928, 
    936, 
    938, 
    946, 
    948, 
    980, 
    990, 
    992, 
    1002, 
    1004, 
    1012, 
    1014, 
    1025, 
    1027, 
    1035, 
    1037, 
    1060, 
    1062, 
    1070, 
    1072, 
    1080, 
    1082, 
    1092, 
    1094, 
    1102, 
    1104, 
    1126, 
    1128, 
    1136, 
    1138, 
    1149, 
    1151, 
    1159, 
    1161, 
    1169, 
    1171, 
    1203, 
    1214, 
    1216, 
    1226, 
    1228, 
    1236, 
    1238, 
    1249, 
    1251, 
    1259, 
    1261, 
    1284, 
    1286, 
    1294, 
    1296, 
    1304, 
    1306, 
    1316, 
    1318, 
    1326, 
    1328, 
    1350, 
    1352, 
    1360, 
    1362, 
    1373, 
    1375, 
    1383, 
    1385, 
    1393, 
    1395, 
    1427, 
    1437, 
    1439, 
    1449, 
    1451, 
    1459, 
    1461, 
    1472, 
    1474, 
    1482, 
    1484, 
    1507, 
    1509, 
    1517, 
    1519, 
    1527, 
    1529, 
    1539, 
    1541, 
    1549, 
    1551, 
    1573, 
    1575, 
    1583, 
    1585, 
    1596, 
    1598, 
    1606, 
    1608, 
    1616, 
    1618, 
    1650, 
    1661, 
    1663, 
    1673, 
    1675, 
    1683, 
    1685, 
    1696, 
    1698, 
    1706, 
    1708, 
    1731, 
    1733, 
    1741, 
    1743, 
    1751, 
    1753, 
    1763, 
    1765, 
    1773, 
    1775, 
    1797, 
    1799, 
    1807, 
    1809, 
    1820, 
    1822, 
    1830, 
    1832, 
    1840, 
    1842, 
    1874, 
    1884, 
    1886, 
    1896, 
    1898, 
    1906, 
    1908, 
    1919, 
    1921, 
    1929, 
    1931, 
    1954, 
    1956, 
    1964, 
    1966, 
    1974, 
    1976, 
    1986, 
    1988, 
    1996, 
    1998, 
    2020, 
    2022, 
    2030, 
    2032, 
    2043, 
    2045, 
    2053, 
    2055, 
    2063, 
    2065, 
    2097, 
    2108, 
    2110, 
    2120, 
    2122, 
    2130, 
    2132, 
    2143, 
    2145, 
    2153, 
    2155, 
    2178, 
    2180, 
    2188, 
    2190, 
    2198, 
    2200, 
    2210, 
    2212, 
    2220, 
    2222, 
    2244, 
    2246, 
    2254, 
    2256, 
    2267, 
    2269, 
    2277, 
    2279, 
    2287, 
    2289, 
    2321, 
    2331, 
    2333, 
    2343, 
    2345, 
    2353, 
    2355, 
    2366, 
    2368, 
    2376, 
    2378, 
    2401, 
    2403, 
    2411, 
    2413, 
    2421, 
    2423, 
    2433, 
    2435, 
    2443, 
    2445, 
    2467, 
    2469, 
    2477, 
    2479, 
    2490, 
    2492, 
    2500, 
    2502, 
    2510, 
    2512, 
    2544, 
    2555, 
    2557, 
    2567, 
    2569, 
    2577, 
    2579, 
    2590, 
    2592, 
    2600, 
    2602, 
    2625, 
    2627, 
    2635, 
    2637, 
    2645, 
    2647, 
    2657, 
    2659, 
    2667, 
    2669, 
    2691, 
    2693, 
    2701, 
    2703, 
    2714, 
    2716, 
    2724, 
    2726, 
    2734, 
    2736, 
    2768, 
    2778, 
    2780, 
    2790, 
    2792, 
    2800, 
    2802, 
    2813, 
    2815, 
    2823, 
    2825, 
    2848, 
    2850, 
    2858, 
    2860, 
    2868, 
    2870, 
    2880, 
    2882, 
    2890, 
    2892, 
    2914, 
    2916, 
    2924, 
    2926, 
    2937, 
    2939, 
    2947, 
    2949, 
    2957, 
    2959, 
    2991, 
    3002, 
    3004, 
    3014, 
    3016, 
    3024, 
    3026, 
    3037, 
    3039, 
    3047, 
    3049, 
    3072, 
    3074, 
    3082, 
    3084, 
    3092, 
    3094, 
    3104, 
    3106, 
    3114, 
    3116, 
    3138, 
    3140, 
    3148, 
    3150, 
    3161, 
    3163, 
    3171, 
    3173, 
    3181, 
    3183, 
    3215, 
    3225, 
    3227, 
    3237, 
    3239, 
    3247, 
    3249, 
    3260, 
    3262, 
    3270, 
    3272, 
    3295, 
    3297, 
    3305, 
    3307, 
    3315, 
    3317, 
    3327, 
    3329, 
    3337, 
    3339, 
    3361, 
    3363, 
    3371, 
    3373, 
    3384, 
    3386, 
    3394, 
    3396, 
    3404, 
    3406, 
    3438, 
    3449, 
    3451, 
    3461, 
    3463, 
    3471, 
    3473, 
    3484, 
    3486, 
    3494, 
    3496, 
    3519, 
    3521, 
    3529, 
    3531, 
    3539, 
    3541, 
    3551, 
    3553, 
    3561, 
    3563, 
    3585, 
    3587, 
    3595, 
    3597, 
    3608, 
    3610, 
    3618, 
    3620, 
    3628, 
    3630, 
    3662, 
    3672, 
    3674, 
    3684, 
    3686, 
    3694, 
    3696, 
    3707, 
    3709, 
    3717, 
    3719, 
    3742, 
    3744, 
    3752, 
    3754, 
    3762, 
    3764, 
    3774, 
    3776, 
    3784, 
    3786, 
    3808, 
    3810, 
    3818, 
    3820, 
    3831, 
    3833, 
    3841, 
    3843, 
    3851, 
    3853, 
    3885, 
    3895, 
    3897, 
    3907, 
    3909, 
    3917, 
    3919, 
    3930, 
    3932, 
    3940, 
    3942, 
    3964, 
    3966, 
    3968, 
    3972, 
    3974, 
    3975
  ], 
  "node_row_ptr": [
    0, 
    1, 
    2, 
    3, 
    4, 
    5, 
    6, 
    7, 
    8, 
    9, 
    10, 
    11, 
    12, 
    13, 
    14, 
    15, 
    16, 
    17, 
    18, 
    19, 
    20, 
    21, 
    22, 
    23, 
    24, 
    25, 
    26, 
    27, 
    28, 
    29, 
    30, 
    31, 
    32, 
    33, 
    34, 
    35, 
    36, 
    37, 
    38, 
    39, 
    40, 
    41, 
    42, 
    43, 
    44, 
    45, 
    46, 
    47, 
    48, 
    49, 
    50, 
    51, 
    52, 
    53, 
    54, 
    55, 
    56, 
    57, 
    58, 
    59, 
    60, 
    61, 
    62, 
    63, 
    64, 
    65, 
    66, 
    67, 
    68, 
    69, 
    70, 
    71, 
    72, 
    73, 
    74, 
    75, 
    76, 
    77, 
    79, 
    80, 
    81, 
    82, 
    83, 
    84, 
    85, 
    86, 
    87, 
    88, 
    89, 
    90, 
    91, 
    92, 
    93, 
    94, 
    95, 
    96, 
    97, 
    98, 
    99, 
    100, 
    101, 
    102, 
    103, 
    104, 
    105, 
    106, 
    107, 
    108, 
    109, 
    110, 
    111, 
    112, 
    113, 
    114, 
    115, 
    116, 
    117, 
    118, 
    119, 
    120, 
    121, 
    122, 
    123, 
    124, 
    125, 
    126, 
    127, 
    128, 
    129, 
    130, 
    131, 
    132, 
    133, 
    134, 
    135, 
    136, 
    137, 
    138, 
    139, 
    140, 
    141, 
    142, 
    143, 
    144, 
    145, 
    146, 
    147, 
    148, 
    149, 
    150, 
    151, 
    152, 
    153, 
    154, 
    155, 
    156, 
    157, 
    158, 
    159, 
    160, 
    161, 
    162, 
    163, 
    164, 
    165, 
    166, 
    167, 
    168, 
    169, 
    170, 
    171, 
    172, 
    173, 
    174, 
    175, 
    176, 
    177, 
    178, 
    179, 
    180, 
    181, 
    182, 
    183, 
    184, 
    185, 
    186, 
    187, 
    188, 
    189, 
    190, 
    191, 
    192, 
    193, 
    194, 
    195, 
    196, 
    197, 
    198, 
    199, 
    200, 
    201, 
    202, 
    203, 
    204, 
    205, 
    206, 
    207, 
    208, 
    209, 
    210, 
    211, 
    212, 
    213, 
    214, 
    215, 
    216, 
    217, 
    218, 
    219, 
    220, 
    221, 
    222, 
    223, 
    224, 
    225, 
    226, 
    227, 
    228, 
    229, 
    230, 
    231, 
    232, 
    233, 
    234, 
    235, 
    236, 
    237, 
    238, 
    239, 
    240, 
    241, 
    242, 
    243, 
    244, 
    245, 
    246, 
    247, 
    248, 
    249, 
    250, 
    251, 
    252, 
    253, 
    254, 
    255, 
    256, 
    257, 
    258, 
    259, 
    260, 
    261, 
    262, 
    263, 
    264, 
    265, 
    266, 
    267, 
    268, 
    269, 
    270, 
    271, 
    272, 
    273, 
    274, 
    275, 
    276, 
    277, 
    278, 
    279, 
    280, 
    281, 
    282, 
    283, 
    284, 
    285, 
    286, 
    287, 
    288, 
    289, 
    290, 
    291, 
    292, 
    293, 
    294, 
    295, 
    296, 
    297, 
    298, 
    299, 
    300, 
    301, 
    302, 
    303, 
    305, 
    306, 
    307, 
    308, 
    309, 
    310, 
    311, 
    312, 
    313, 
    314, 
    315, 
    316, 
    317, 
    318, 
    319, 
    320, 
    321, 
    322, 
    323, 
    324, 
    325, 
    326, 
    327, 
    328, 
    329, 
    330, 
    331, 
    332, 
    333, 
    334, 
    335, 
    336, 
    337, 
    338, 
    339, 
    340, 
    341, 
    342, 
    343, 
    344, 
    345, 
    346, 
    347, 
    348, 
    349, 
    350, 
    351, 
    352, 
    353, 
    354, 
    355, 
    356, 
    357, 
    358, 
    359, 
    360, 
    361, 
    362, 
    363, 
    364, 
    365, 
    366, 
    367, 
    368, 
    369, 
    370, 
    371, 
    372, 
    373, 
    374, 
    375, 
    376, 
    377, 
    378, 
    379, 
    380, 
    381, 
    382, 
    383, 
    384, 
    385, 
    386, 
    387, 
    388, 
    389, 
    390, 
    391, 
    392, 
    393, 
    394, 
    395, 
    396, 
    397, 
    398, 
    399, 
    400, 
    401, 
    402, 
    403, 
    404, 
    405, 
    406, 
    407, 
    408, 
    409, 
    410, 
    411, 
    412, 
    413, 
    414, 
    415, 
    416, 
    417, 
    418, 
    419, 
    420, 
    421, 
    422, 
    423, 
    424, 
    425, 
    426, 
    427, 
    428, 
    429, 
    430, 
    431, 
    432, 
    433, 
    434, 
    435, 
    436, 
    437, 
    438, 
    439, 
    440, 
    441, 
    442, 
    443, 
    444, 
    445, 
    446, 
    447, 
    448, 
    449, 
    450, 
    451, 
    452, 
    453, 
    454, 
    455, 
    456, 
    457, 
    458, 
    459, 
    460, 
    461, 
    462, 
    463, 
    464, 
    465, 
    466, 
    467, 
    468, 
    469, 
    470, 
    471, 
    472, 
    473, 
    474, 
    475, 
    476, 
    477, 
    478, 
    479, 
    480, 
    481, 
    482, 
    483, 
    484, 
    485, 
    486, 
    487, 
    488, 
    489, 
    490, 
    491, 
    492, 
    493, 
    494, 
    495, 
    496, 
    497, 
    498, 
    499, 
    500, 
    501, 
    502, 
    503, 
    504, 
    505, 
    506, 
    507, 
    508, 
    509, 
    510, 
    511, 
    512, 
    513, 
    514, 
    515, 
    516, 
    517, 
    518, 
    519, 
    520, 
    521, 
    522, 
    523, 
    524, 
    525, 
    526, 
    527, 
    529, 
    530, 
    531, 
    532, 
    533, 
    534, 
    535, 
    536, 
    537, 
    538, 
    539, 
    540, 
    541, 
    542, 
    543, 
    544, 
    545, 
    546, 
    547, 
    548, 
    549, 
    550, 
    551, 
    552, 
    553, 
    554, 
    555, 
    556, 
    557, 
    558, 
    559, 
    560, 
    561, 
    562, 
    563, 
    564, 
    565, 
    566, 
    567, 
    568, 
    569, 
    570, 
    571, 
    572, 
    573, 
    574, 
    575, 
    576, 
    577, 
    578, 
    579, 
    580, 
    581, 
    582, 
    583, 
    584, 
    585, 
    586, 
    587, 
    588, 
    589, 
    590, 
    591, 
    592, 
    593, 
    594, 
    595, 
    596, 
    597, 
    598, 
    599, 
    600, 
    601, 
    602, 
    603, 
    604, 
    605, 
    606, 
    607, 
    608, 
    609, 
    610, 
    611, 
    612, 
    613, 
    614, 
    615, 
    616, 
    617, 
    618, 
    619, 
    620, 
    621, 
    622, 
    623, 
    624, 
    625, 
    626, 
    627, 
    628, 
    629, 
    630, 
    631, 
    632, 
    633, 
    634, 
    635, 
    636, 
    637, 
    638, 
    639, 
    640, 
    641, 
    642, 
    643, 
    644, 
    645, 
    646, 
    647, 
    648, 
    649, 
    650, 
    651, 
    652, 
    653, 
    654, 
    655, 
    656, 
    657, 
    658, 
    659, 
    660, 
    661, 
    662, 
    663, 
    664, 
    665, 
    666, 
    667, 
    668, 
    669, 
    670, 
    671, 
    672, 
    673, 
    674, 
    675, 
    676, 
    677, 
    678, 
    679, 
    680, 
    681, 
    682, 
    683, 
    684, 
    685, 
    686, 
    687, 
    688, 
    689, 
    690, 
    691, 
    692, 
    693, 
    694, 
    695, 
    696, 
    697, 
    698, 
    699, 
    700, 
    701, 
    702, 
    703, 
    704, 
    705, 
    706, 
    707, 
    708, 
    709, 
    710, 
    711, 
    712, 
    713, 
    714, 
    715, 
    716, 
    717, 
    718, 
    719, 
    720, 
    721, 
    722, 
    723, 
    724, 
    725, 
    726, 
    727, 
    728, 
    729, 
    730, 
    731, 
    732, 
    733, 
    734, 
    735, 
    736, 
    737, 
    738, 
    739, 
    740, 
    741, 
    742, 
    743, 
    744, 
    745, 
    746, 
    747, 
    748, 
    749, 
    750, 
    751, 
    753, 
    754, 
    755, 
    756, 
    757, 
    758, 
    759, 
    760, 
    761, 
    762, 
    763, 
    764, 
    765, 
    766, 
    767, 
    768, 
    769, 
    770, 
    771, 
    772, 
    773, 
    774, 
    775, 
    776, 
    777, 
    778, 
    779, 
    780, 
    781, 
    782, 
    783, 
    784, 
    785, 
    786, 
    787, 
    788, 
    789, 
    790, 
    791, 
    792, 
    793, 
    794, 
    795, 
    796, 
    797, 
    798, 
    799, 
    800, 
    801, 
    802, 
    803, 
    804, 
    805, 
    806, 
    807, 
    808, 
    809, 
    810, 
    811, 
    812, 
    813, 
    814, 
    815, 
    816, 
    817, 
    818, 
    819, 
    820, 
    821, 
    822, 
    823, 
    824, 
    825, 
    826, 
    827, 
    828, 
    829, 
    830, 
    831, 
    832, 
    833, 
    834, 
    835, 
    836, 
    837, 
    838, 
    839, 
    840, 
    841, 
    842, 
    843, 
    844, 
    845, 
    846, 
    847, 
    848, 
    849, 
    850, 
    851, 
    852, 
    853, 
    854, 
    855, 
    856, 
    857, 
    858, 
    859, 
    860, 
    861, 
    862, 
    863, 
    864, 
    865, 
    866, 
    867, 
    868, 
    869, 
    870, 
    871, 
    872, 
    873, 
    874, 
    875, 
    876, 
    877, 
    878, 
    879, 
    880, 
    881, 
    882, 
    883, 
    884, 
    885, 
    886, 
    887, 
    888, 
    889, 
    890, 
    891, 
    892, 
    893, 
    894, 
    895, 
    896, 
    897, 
    898, 
    899, 
    900, 
    901, 
    902, 
    903, 
    904, 
    905, 
    906, 
    907, 
    908, 
    909, 
    910, 
    911, 
    912, 
    913, 
    914, 
    915, 
    916, 
    917, 
    918, 
    919, 
    920, 
    921, 
    922, 
    923, 
    924, 
    925, 
    926, 
    927, 
    928, 
    929, 
    930, 
    931, 
    932, 
    933, 
    934, 
    935, 
    936, 
    937, 
    938, 
    939, 
    940, 
    941, 
    942, 
    943, 
    944, 
    945, 
    946, 
    947, 
    948, 
    949, 
    950, 
    951, 
    952, 
    953, 
    954, 
    955, 
    956, 
    957, 
    958, 
    959, 
    960, 
    961, 
    962, 
    963, 
    964, 
    965, 
    966, 
    967, 
    968, 
    969, 
    970, 
    971, 
    972, 
    973, 
    974, 
    975, 
    976, 
    978, 
    979, 
    980, 
    981, 
    982, 
    983, 
    984, 
    985, 
    986, 
    987, 
    988, 
    989, 
    990, 
    991, 
    992, 
    993, 
    994, 
    995, 
    996, 
    997, 
    998, 
    999, 
    1000, 
    1001, 
    1002, 
    1003, 
    1004, 
    1005, 
    1006, 
    1007, 
    1008, 
    1009, 
    1010, 
    1011, 
    1012, 
    1013, 
    1014, 
    1015, 
    1016, 
    1017, 
    1018, 
    1019, 
    1020, 
    1021, 
    1022, 
    1023, 
    1024, 
    1025, 
    1026, 
    1027, 
    1028, 
    1029, 
    1030, 
    1031, 
    1032, 
    1033, 
    1034, 
    1035, 
    1036, 
    1037, 
    1038, 
    1039, 
    1040, 
    1041, 
    1042, 
    1043, 
    1044, 
    1045, 
    1046, 
    1047, 
    1048, 
    1049, 
    1050, 
    1051, 
    1052, 
    1053, 
    1054, 
    1055, 
    1056, 
    1057, 
    1058, 
    1059, 
    1060, 
    1061, 
    1062, 
    1063, 
    1064, 
    1065, 
    1066, 
    1067, 
    1068, 
    1069, 
    1070, 
    1071, 
    1072, 
    1073, 
    1074, 
    1075, 
    1076, 
    1077, 
    1078, 
    1079, 
    1080, 
    1081, 
    1082, 
    1083, 
    1084, 
    1085, 
    1086, 
    1087, 
    1088, 
    1089, 
    1090, 
    1091, 
    1092, 
    1093, 
    1094, 
    1095, 
    1096, 
    1097, 
    1098, 
    1099, 
    1100, 
    1101, 
    1102, 
    1103, 
    1104, 
    1105, 
    1106, 
    1107, 
    1108, 
    1109, 
    1110, 
    1111, 
    1112, 
    1113, 
    1114, 
    1115, 
    1116, 
    1117, 
    1118, 
    1119, 
    1120, 
    1121, 
    1122, 
    1123, 
    1124, 
    1125, 
    1126, 
    1127, 
    1128, 
    1129, 
    1130, 
    1131, 
    1132, 
    1133, 
    1134, 
    1135, 
    1136, 
    1137, 
    1138, 
    1139, 
    1140, 
    1141, 
    1142, 
    1143, 
    1144, 
    1145, 
    1146, 
    1147, 
    1148, 
    1149, 
    1150, 
    1151, 
    1152, 
    1153, 
    1154, 
    1155, 
    1156, 
    1157, 
    1158, 
    1159, 
    1160, 
    1161, 
    1162, 
    1163, 
    1164, 
    1165, 
    1166, 
    1167, 
    1168, 
    1169, 
    1170, 
    1171, 
    1172, 
    1173, 
    1174, 
    1175, 
    1176, 
    1177, 
    1178, 
    1179, 
    1180, 
    1181, 
    1182, 
    1183, 
    1184, 
    1185, 
    1186, 
    1187, 
    1188, 
    1189, 
    1190, 
    1191, 
    1192, 
    1193, 
    1194, 
    1195, 
    1196, 
    1197, 
    1198, 
    1199, 
    1200, 
    1202, 
    1203, 
    1204, 
    1205, 
    1206, 
    1207, 
    1208, 
    1209, 
    1210, 
    1211, 
    1212, 
    1213, 
    1214, 
    1215, 
    1216, 
    1217, 
    1218, 
    1219, 
    1220, 
    1221, 
    1222, 
    1223, 
    1224, 
    1225, 
    1226, 
    1227, 
    1228, 
    1229, 
    1230, 
    1231, 
    1232, 
    1233, 
    1234, 
    1235, 
    1236, 
    1237, 
    1238, 
    1239, 
    1240, 
    1241, 
    1242, 
    1243, 
    1244, 
    1245, 
    1246, 
    1247, 
    1248, 
    1249, 
    1250, 
    1251, 
    1252, 
    1253, 
    1254, 
    1255, 
    1256, 
    1257, 
    1258, 
    1259, 
    1260, 
    1261, 
    1262, 
    1263, 
    1264, 
    1265, 
    1266, 
    1267, 
    1268, 
    1269, 
    1270, 
    1271, 
    1272, 
    1273, 
    1274, 
    1275, 
    1276, 
    1277, 
    1278, 
    1279, 
    1280, 
    1281, 
    1282, 
    1283, 
    1284, 
    1285, 
    1286, 
    1287, 
    1288, 
    1289, 
    1290, 
    1291, 
    1292, 
    1293, 
    1294, 
    1295, 
    1296, 
    1297, 
    1298, 
    1299, 
    1300, 
    1301, 
    1302, 
    1303, 
    1304, 
    1305, 
    1306, 
    1307, 
    1308, 
    1309, 
    1310, 
    1311, 
    1312, 
    1313, 
    1314, 
    1315, 
    1316, 
    1317, 
    1318, 
    1319, 
    1320, 
    1321, 
    1322, 
    1323, 
    1324, 
    1325, 
    1326, 
    1327, 
    1328, 
    1329, 
    1330, 
    1331, 
    1332, 
    1333, 
    1334, 
    1335, 
    1336, 
    1337, 
    1338, 
    1339, 
    1340, 
    1341, 
    1342, 
    1343, 
    1344, 
    1345, 
    1346, 
    1347, 
    1348, 
    1349, 
    1350, 
    1351, 
    1352, 
    1353, 
    1354, 
    1355, 
    1356, 
    1357, 
    1358, 
    1359, 
    1360, 
    1361, 
    1362, 
    1363, 
    1364, 
    1365, 
    1366, 
    1367, 
    1368, 
    1369, 
    1370, 
    1371, 
    1372, 
    1373, 
    1374, 
    1375, 
    1376, 
    1377, 
    1378, 
    1379, 
    1380, 
    1381, 
    1382, 
    1383, 
    1384, 
    1385, 
    1386, 
    1387, 
    1388, 
    1389, 
    1390, 
    1391, 
    1392, 
    1393, 
    1394, 
    1395, 
    1396, 
    1397, 
    1398, 
    1399, 
    1400, 
    1401, 
    1402, 
    1403, 
    1404, 
    1405, 
    1406, 
    1407, 
    1408, 
    1409, 
    1410, 
    1411, 
    1412, 
    1413, 
    1414, 
    1415, 
    1416, 
    1417, 
    1418, 
    1419, 
    1420, 
    1421, 
    1422, 
    1423, 
    1424, 
    1425, 
    1427, 
    1428, 
    1429, 
    1430, 
    1431, 
    1432, 
    1433, 
    1434, 
    1435, 
    1436, 
    1437, 
    1438, 
    1439, 
    1440, 
    1441, 
    1442, 
    1443, 
    1444, 
    1445, 
    1446, 
    1447, 
    1448, 
    1449, 
    1450, 
    1451, 
    1452, 
    1453, 
    1454, 
    1455, 
    1456, 
    1457, 
    1458, 
    1459, 
    1460, 
    1461, 
    1462, 
    1463, 
    1464, 
    1465, 
    1466, 
    1467, 
    1468, 
    1469, 
    1470, 
    1471, 
    1472, 
    1473, 
    1474, 
    1475, 
    1476, 
    1477, 
    1478, 
    1479, 
    1480, 
    1481, 
    1482, 
    1483, 
    1484, 
    1485, 
    1486, 
    1487, 
    1488, 
    1489, 
    1490, 
    1491, 
    1492, 
    1493, 
    1494, 
    1495, 
    1496, 
    1497, 
    1498, 
    1499, 
    1500, 
    1501, 
    1502, 
    1503, 
    1504, 
    1505, 
    1506, 
    1507, 
    1508, 
    1509, 
    1510, 
    1511, 
    1512, 
    1513, 
    1514, 
    1515, 
    1516, 
    1517, 
    1518, 
    1519, 
    1520, 
    1521, 
    1522, 
    1523, 
    1524, 
    1525, 
    1526, 
    1527, 
    1528, 
    1529, 
    1530, 
    1531, 
    1532, 
    1533, 
    1534, 
    1535, 
    1536, 
    1537, 
    1538, 
    1539, 
    1540, 
    1541, 
    1542, 
    1543, 
    1544, 
    1545, 
    1546, 
    1547, 
    1548, 
    1549, 
    1550, 
    1551, 
    1552, 
    1553, 
    1554, 
    1555, 
    1556, 
    1557, 
    1558, 
    1559, 
    1560, 
    1561, 
    1562, 
    1563, 
    1564, 
    1565, 
    1566, 
    1567, 
    1568, 
    1569, 
    1570, 
    1571, 
    1572, 
    1573, 
    1574, 
    1575, 
    1576, 
    1577, 
    1578, 
    1579, 
    1580, 
    1581, 
    1582, 
    1583, 
    1584, 
    1585, 
    1586, 
    1587, 
    1588, 
    1589, 
    1590, 
    1591, 
    1592, 
    1593, 
    1594, 
    1595, 
    1596, 
    1597, 
    1598, 
    1599, 
    1600, 
    1601, 
    1602, 
    1603, 
    1604, 
    1605, 
    1606, 
    1607, 
    1608, 
    1609, 
    1610, 
    1611, 
    1612, 
    1613, 
    1614, 
    1615, 
    1616, 
    1617, 
    1618, 
    1619, 
    1620, 
    1621, 
    1622, 
    1623, 
    1624, 
    1625, 
    1626, 
    1627, 
    1628, 
    1629, 
    1630, 
    1631, 
    1632, 
    1633, 
    1634, 
    1635, 
    1636, 
    1637, 
    1638, 
    1639, 
    1640, 
    1641, 
    1642, 
    1643, 
    1644, 
    1645, 
    1646, 
    1647, 
    1648, 
    1649, 
    1651, 
    1652, 
    1653, 
    1654, 
    1655, 
    1656, 
    1657, 
    1658, 
    1659, 
    1660, 
    1661, 
    1662, 
    1663, 
    1664, 
    1665, 
    1666, 
    1667, 
    1668, 
    1669, 
    1670, 
    1671, 
    1672, 
    1673, 
    1674, 
    1675, 
    1676, 
    1677, 
    1678, 
    1679, 
    1680, 
    1681, 
    1682, 
    1683, 
    1684, 
    1685, 
    1686, 
    1687, 
    1688, 
    1689, 
    1690, 
    1691, 
    1692, 
    1693, 
    1694, 
    1695, 
    1696, 
    1697, 
    1698, 
    1699, 
    1700, 
    1701, 
    1702, 
    1703, 
    1704, 
    1705, 
    1706, 
    1707, 
    1708, 
    1709, 
    1710, 
    1711, 
    1712, 
    1713, 
    1714, 
    1715, 
    1716, 
    1717, 
    1718, 
    1719, 
    1720, 
    1721, 
    1722, 
    1723, 
    1724, 
    1725, 
    1726, 
    1727, 
    1728, 
    1729, 
    1730, 
    1731, 
    1732, 
    1733, 
    1734, 
    1735, 
    1736, 
    1737, 
    1738, 
    1739, 
    1740, 
    1741, 
    1742, 
    1743, 
    1744, 
    1745, 
    1746, 
    1747, 
    1748, 
    1749, 
    1750, 
    1751, 
    1752, 
    1753, 
    1754, 
    1755, 
    1756, 
    1757, 
    1758, 
    1759, 
    1760, 
    1761, 
    1762, 
    1763, 
    1764, 
    1765, 
    1766, 
    1767, 
    1768, 
    1769, 
    1770, 
    1771, 
    1772, 
    1773, 
    1774, 
    1775, 
    1776, 
    1777, 
    1778, 
    1779, 
    1780, 
    1781, 
    1782, 
    1783, 
    1784, 
    1785, 
    1786, 
    1787, 
    1788, 
    1789, 
    1790, 
    1791, 
    1792, 
    1793, 
    1794, 
    1795, 
    1796, 
    1797, 
    1798, 
    1799, 
    1800, 
    1801, 
    1802, 
    1803, 
    1804, 
    1805, 
    1806, 
    1807, 
    1808, 
    1809, 
    1810, 
    1811, 
    1812, 
    1813, 
    1814, 
    1815, 
    1816, 
    1817, 
    1818, 
    1819, 
    1820, 
    1821, 
    1822, 
    1823, 
    1824, 
    1825, 
    1826, 
    1827, 
    1828, 
    1829, 
    1830, 
    1831, 
    1832, 
    1833, 
    1834, 
    1835, 
    1836, 
    1837, 
    1838, 
    1839, 
    1840, 
    1841, 
    1842, 
    1843, 
    1844, 
    1845, 
    1846, 
    1847, 
    1848, 
    1849, 
    1850, 
    1851, 
    1852, 
    1853, 
    1854, 
    1855, 
    1856, 
    1857, 
    1858, 
    1859, 
    1860, 
    1861, 
    1862, 
    1863, 
    1864, 
    1865, 
    1866, 
    1867, 
    1868, 
    1869, 
    1870, 
    1871, 
    1872, 
    1873, 
    1874, 
    1876, 
    1877, 
    1878, 
    1879, 
    1880, 
    1881, 
    1882, 
    1883, 
    1884, 
    1885, 
    1886, 
    1887, 
    1888, 
    1889, 
    1890, 
    1891, 
    1892, 
    1893, 
    1894, 
    1895, 
    1896, 
    1897, 
    1898, 
    1899, 
    1900, 
    1901, 
    1902, 
    1903, 
    1904, 
    1905, 
    1906, 
    1907, 
    1908, 
    1909, 
    1910, 
    1911, 
    1912, 
    1913, 
    1914, 
    1915, 
    1916, 
    1917, 
    1918, 
    1919, 
    1920, 
    1921, 
    1922, 
    1923, 
    1924, 
    1925, 
    1926, 
    1927, 
    1928, 
    1929, 
    1930, 
    1931, 
    1932, 
    1933, 
    1934, 
    1935, 
    1936, 
    1937, 
    1938, 
    1939, 
    1940, 
    1941, 
    1942, 
    1943, 
    1944, 
    1945, 
    1946, 
    1947, 
    1948, 
    1949, 
    1950, 
    1951, 
    1952, 
    1953, 
    1954, 
    1955, 
    1956, 
    1957, 
    1958, 
    1959, 
    1960, 
    1961, 
    1962, 
    1963, 
    1964, 
    1965, 
    1966, 
    1967, 
    1968, 
    1969, 
    1970, 
    1971, 
    1972, 
    1973, 
    1974, 
    1975, 
    1976, 
    1977, 
    1978, 
    1979, 
    1980, 
    1981, 
    1982, 
    1983, 
    1984, 
    1985, 
    1986, 
    1987, 
    1988, 
    1989, 
    1990, 
    1991, 
    1992, 
    1993, 
    1994, 
    1995, 
    1996, 
    1997, 
    1998, 
    1999, 
    2000, 
    2001, 
    2002, 
    2003, 
    2004, 
    2005, 
    2006, 
    2007, 
    2008, 
    2009, 
    2010, 
    2011, 
    2012, 
    2013, 
    2014, 
    2015, 
    2016, 
    2017, 
    2018, 
    2019, 
    2020, 
    2021, 
    2022, 
    2023, 
    2024, 
    2025, 
    2026, 
    2027, 
    2028, 
    2029, 
    2030, 
    2031, 
    2032, 
    2033, 
    2034, 
    2035, 
    2036, 
    2037, 
    2038, 
    2039, 
    2040, 
    2041, 
    2042, 
    2043, 
    2044, 
    2045, 
    2046, 
    2047, 
    2048, 
    2049, 
    2050, 
    2051, 
    2052, 
    2053, 
    2054, 
    2055, 
    2056, 
    2057, 
    2058, 
    2059, 
    2060, 
    2061, 
    2062, 
    2063, 
    2064, 
    2065, 
    2066, 
    2067, 
    2068, 
    2069, 
    2070, 
    2071, 
    2072, 
    2073, 
    2074, 
    2075, 
    2076, 
    2077, 
    2078, 
    2079, 
    2080, 
    2081, 
    2082, 
    2083, 
    2084, 
    2085, 
    2086, 
    2087, 
    2088, 
    2089, 
    2090, 
    2091, 
    2092, 
    2093, 
    2094, 
    2095, 
    2096, 
    2097, 
    2098, 
    2100, 
    2101, 
    2102, 
    2103, 
    2104, 
    2105, 
    2106, 
    2107, 
    2108, 
    2109, 
    2110, 
    2111, 
    2112, 
    2113, 
    2114, 
    2115, 
    2116, 
    2117, 
    2118, 
    2119, 
    2120, 
    2121, 
    2122, 
    2123, 
    2124, 
    2125, 
    2126, 
    2127, 
    2128, 
    2129, 
    2130, 
    2131, 
    2132, 
    2133, 
    2134, 
    2135, 
    2136, 
    2137, 
    2138, 
    2139, 
    2140, 
    2141, 
    2142, 
    2143, 
    2144, 
    2145, 
    2146, 
    2147, 
    2148, 
    2149, 
    2150, 
    2151, 
    2152, 
    2153, 
    2154, 
    2155, 
    2156, 
    2157, 
    2158, 
    2159, 
    2160, 
    2161, 
    2162, 
    2163, 
    2164, 
    2165, 
    2166, 
    2167, 
    2168, 
    2169, 
    2170, 
    2171, 
    2172, 
    2173, 
    2174, 
    2175, 
    2176, 
    2177, 
    2178, 
    2179, 
    2180, 
    2181, 
    2182, 
    2183, 
    2184, 
    2185, 
    2186, 
    2187, 
    2188, 
    2189, 
    2190, 
    2191, 
    2192, 
    2193, 
    2194, 
    2195, 
    2196, 
    2197, 
    2198, 
    2199, 
    2200, 
    2201, 
    2202, 
    2203, 
    2204, 
    2205, 
    2206, 
    2207, 
    2208, 
    2209, 
    2210, 
    2211, 
    2212, 
    2213, 
    2214, 
    2215, 
    2216, 
    2217, 
    2218, 
    2219, 
    2220, 
    2221, 
    2222, 
    2223, 
    2224, 
    2225, 
    2226, 
    2227, 
    2228, 
    2229, 
    2230, 
    2231, 
    2232, 
    2233, 
    2234, 
    2235, 
    2236, 
    2237, 
    2238, 
    2239, 
    2240, 
    2241, 
    2242, 
    2243, 
    2244, 
    2245, 
    2246, 
    2247, 
    2248, 
    2249, 
    2250, 
    2251, 
    2252, 
    2253, 
    2254, 
    2255, 
    2256, 
    2257, 
    2258, 
    2259, 
    2260, 
    2261, 
    2262, 
    2263, 
    2264, 
    2265, 
    2266, 
    2267, 
    2268, 
    2269, 
    2270, 
    2271, 
    2272, 
    2273, 
    2274, 
    2275, 
    2276, 
    2277, 
    2278, 
    2279, 
    2280, 
    2281, 
    2282, 
    2283, 
    2284, 
    2285, 
    2286, 
    2287, 
    2288, 
    2289, 
    2290, 
    2291, 
    2292, 
    2293, 
    2294, 
    2295, 
    2296, 
    2297, 
    2298, 
    2299, 
    2300, 
    2301, 
    2302, 
    2303, 
    2304, 
    2305, 
    2306, 
    2307, 
    2308, 
    2309, 
    2310, 
    2311, 
    2312, 
    2313, 
    2314, 
    2315, 
    2316, 
    2317, 
    2318, 
    2319, 
    2320, 
    2321, 
    2322, 
    2323, 
    2325, 
    2326, 
    2327, 
    2328, 
    2329, 
    2330, 
    2331, 
    2332, 
    2333, 
    2334, 
    2335, 
    2336, 
    2337, 
    2338, 
    2339, 
    2340, 
    2341, 
    2342, 
    2343, 
    2344, 
    2345, 
    2346, 
    2347, 
    2348, 
    2349, 
    2350, 
    2351, 
    2352, 
    2353, 
    2354, 
    2355, 
    2356, 
    2357, 
    2358, 
    2359, 
    2360, 
    2361, 
    2362, 
    2363, 
    2364, 
    2365, 
    2366, 
    2367, 
    2368, 
    2369, 
    2370, 
    2371, 
    2372, 
    2373, 
    2374, 
    2375, 
    2376, 
    2377, 
    2378, 
    2379, 
    2380, 
    2381, 
    2382, 
    2383, 
    2384, 
    2385, 
    2386, 
    2387, 
    2388, 
    2389, 
    2390, 
    2391, 
    2392, 
    2393, 
    2394, 
    2395, 
    2396, 
    2397, 
    2398, 
    2399, 
    2400, 
    2401, 
    2402, 
    2403, 
    2404, 
    2405, 
    2406, 
    2407, 
    2408, 
    2409, 
    2410, 
    2411, 
    2412, 
    2413, 
    2414, 
    2415, 
    2416, 
    2417, 
    2418, 
    2419, 
    2420, 
    2421, 
    2422, 
    2423, 
    2424, 
    2425, 
    2426, 
    2427, 
    2428, 
    2429, 
    2430, 
    2431, 
    2432, 
    2433, 
    2434, 
    2435, 
    2436, 
    2437, 
    2438, 
    2439, 
    2440, 
    2441, 
    2442, 
    2443, 
    2444, 
    2445, 
    2446, 
    2447, 
    2448, 
    2449, 
    2450, 
    2451, 
    2452, 
    2453, 
    2454, 
    2455, 
    2456, 
    2457, 
    2458, 
    2459, 
    2460, 
    2461, 
    2462, 
    2463, 
    2464, 
    2465, 
    2466, 
    2467, 
    2468, 
    2469, 
    2470, 
    2471, 
    2472, 
    2473, 
    2474, 
    2475, 
    2476, 
    2477, 
    2478, 
    2479, 
    2480, 
    2481, 
    2482, 
    2483, 
    2484, 
    2485, 
    2486, 
    2487, 
    2488, 
    2489, 
    2490, 
    2491, 
    2492, 
    2493, 
    2494, 
    2495, 
    2496, 
    2497, 
    2498, 
    2499, 
    2500, 
    2501, 
    2502, 
    2503, 
    2504, 
    2505, 
    2506, 
    2507, 
    2508, 
    2509, 
    2510, 
    2511, 
    2512, 
    2513, 
    2514, 
    2515, 
    2516, 
    2517, 
    2518, 
    2519, 
    2520, 
    2521, 
    2522, 
    2523, 
    2524, 
    2525, 
    2526, 
    2527, 
    2528, 
    2529, 
    2530, 
    2531, 
    2532, 
    2533, 
    2534, 
    2535, 
    2536, 
    2537, 
    2538, 
    2539, 
    2540, 
    2541, 
    2542, 
    2543, 
    2544, 
    2545, 
    2546, 
    2547, 
    2549, 
    2550, 
    2551, 
    2552, 
    2553, 
    2554, 
    2555, 
    2556, 
    2557, 
    2558, 
    2559, 
    2560, 
    2561, 
    2562, 
    2563, 
    2564, 
    2565, 
    2566, 
    2567, 
    2568, 
    2569, 
    2570, 
    2571, 
    2572, 
    2573, 
    2574, 
    2575, 
    2576, 
    2577, 
    2578, 
    2579, 
    2580, 
    2581, 
    2582, 
    2583, 
    2584, 
    2585, 
    2586, 
    2587, 
    2588, 
    2589, 
    2590, 
    2591, 
    2592, 
    2593, 
    2594, 
    2595, 
    2596, 
    2597, 
    2598, 
    2599, 
    2600, 
    2601, 
    2602, 
    2603, 
    2604, 
    2605, 
    2606, 
    2607, 
    2608, 
    2609, 
    2610, 
    2611, 
    2612, 
    2613, 
    2614, 
    2615, 
    2616, 
    2617, 
    2618, 
    2619, 
    2620, 
    2621, 
    2622, 
    2623, 
    2624, 
    2625, 
    2626, 
    2627, 
    2628, 
    2629, 
    2630, 
    2631, 
    2632, 
    2633, 
    2634, 
    2635, 
    2636, 
    2637, 
    2638, 
    2639, 
    2640, 
    2641, 
    2642, 
    2643, 
    2644, 
    2645, 
    2646, 
    2647, 
    2648, 
    2649, 
    2650, 
    2651, 
    2652, 
    2653, 
    2654, 
    2655, 
    2656, 
    2657, 
    2658, 
    2659, 
    2660, 
    2661, 
    2662, 
    2663, 
    2664, 
    2665, 
    2666, 
    2667, 
    2668, 
    2669, 
    2670, 
    2671, 
    2672, 
    2673, 
    2674, 
    2675, 
    2676, 
    2677, 
    2678, 
    2679, 
    2680, 
    2681, 
    2682, 
    2683, 
    2684, 
    2685, 
    2686, 
    2687, 
    2688, 
    2689, 
    2690, 
    2691, 
    2692, 
    2693, 
    2694, 
    2695, 
    2696, 
    2697, 
    2698, 
    2699, 
    2700, 
    2701, 
    2702, 
    2703, 
    2704, 
    2705, 
    2706, 
    2707, 
    2708, 
    2709, 
    2710, 
    2711, 
    2712, 
    2713, 
    2714, 
    2715, 
    2716, 
    2717, 
    2718, 
    2719, 
    2720, 
    2721, 
    2722, 
    2723, 
    2724, 
    2725, 
    2726, 
    2727, 
    2728, 
    2729, 
    2730, 
    2731, 
    2732, 
    2733, 
    2734, 
    2735, 
    2736, 
    2737, 
    2738, 
    2739, 
    2740, 
    2741, 
    2742, 
    2743, 
    2744, 
    2745, 
    2746, 
    2747, 
    2748, 
    2749, 
    2750, 
    2751, 
    2752, 
    2753, 
    2754, 
    2755, 
    2756, 
    2757, 
    2758, 
    2759, 
    2760, 
    2761, 
    2762, 
    2763, 
    2764, 
    2765, 
    2766, 
    2767, 
    2768, 
    2769, 
    2770, 
    2771, 
    2772, 
    2774, 
    2775, 
    2776, 
    2777, 
    2778, 
    2779, 
    2780, 
    2781, 
    2782, 
    2783, 
    2784, 
    2785, 
    2786, 
    2787, 
    2788, 
    2789, 
    2790, 
    2791, 
    2792, 
    2793, 
    2794, 
    2795, 
    2796, 
    2797, 
    2798, 
    2799, 
    2800, 
    2801, 
    2802, 
    2803, 
    2804, 
    2805, 
    2806, 
    2807, 
    2808, 
    2809, 
    2810, 
    2811, 
    2812, 
    2813, 
    2814, 
    2815, 
    2816, 
    2817, 
    2818, 
    2819, 
    2820, 
    2821, 
    2822, 
    2823, 
    2824, 
    2825, 
    2826, 
    2827, 
    2828, 
    2829, 
    2830, 
    2831, 
    2832, 
    2833, 
    2834, 
    2835, 
    2836, 
    2837, 
    2838, 
    2839, 
    2840, 
    2841, 
    2842, 
    2843, 
    2844, 
    2845, 
    2846, 
    2847, 
    2848, 
    2849, 
    2850, 
    2851, 
    2852, 
    2853, 
    2854, 
    2855, 
    2856, 
    2857, 
    2858, 
    2859, 
    2860, 
    2861, 
    2862, 
    2863, 
    2864, 
    2865, 
    2866, 
    2867, 
    2868, 
    2869, 
    2870, 
    2871, 
    2872, 
    2873, 
    2874, 
    2875, 
    2876, 
    2877, 
    2878, 
    2879, 
    2880, 
    2881, 
    2882, 
    2883, 
    2884, 
    2885, 
    2886, 
    2887, 
    2888, 
    2889, 
    2890, 
    2891, 
    2892, 
    2893, 
    2894, 
    2895, 
    2896, 
    2897, 
    2898, 
    2899, 
    2900, 
    2901, 
    2902, 
    2903, 
    2904, 
    2905, 
    2906, 
    2907, 
    2908, 
    2909, 
    2910, 
    2911, 
    2912, 
    2913, 
    2914, 
    2915, 
    2916, 
    2917, 
    2918, 
    2919, 
    2920, 
    2921, 
    2922, 
    2923, 
    2924, 
    2925, 
    2926, 
    2927, 
    2928, 
    2929, 
    2930, 
    2931, 
    2932, 
    2933, 
    2934, 
    2935, 
    2936, 
    2937, 
    2938, 
    2939, 
    2940, 
    2941, 
    2942, 
    2943, 
    2944, 
    2945, 
    2946, 
    2947, 
    2948, 
    2949, 
    2950, 
    2951, 
    2952, 
    2953, 
    2954, 
    2955, 
    2956, 
    2957, 
    2958, 
    2959, 
    2960, 
    2961, 
    2962, 
    2963, 
    2964, 
    2965, 
    2966, 
    2967, 
    2968, 
    2969, 
    2970, 
    2971, 
    2972, 
    2973, 
    2974, 
    2975, 
    2976, 
    2977, 
    2978, 
    2979, 
    2980, 
    2981, 
    2982, 
    2983, 
    2984, 
    2985, 
    2986, 
    2987, 
    2988, 
    2989, 
    2990, 
    2991, 
    2992, 
    2993, 
    2994, 
    2995, 
    2996, 
    2998, 
    2999, 
    3000, 
    3001, 
    3002, 
    3003, 
    3004, 
    3005, 
    3006, 
    3007, 
    3008, 
    3009, 
    3010, 
    3011, 
    3012, 
    3013, 
    3014, 
    3015, 
    3016, 
    3017, 
    3018, 
    3019, 
    3020, 
    3021, 
    3022, 
    3023, 
    3024, 
    3025, 
    3026, 
    3027, 
    3028, 
    3029, 
    3030, 
    3031, 
    3032, 
    3033, 
    3034, 
    3035, 
    3036, 
    3037, 
    3038, 
    3039, 
    3040, 
    3041, 
    3042, 
    3043, 
    3044, 
    3045, 
    3046, 
    3047, 
    3048, 
    3049, 
    3050, 
    3051, 
    3052, 
    3053, 
    3054, 
    3055, 
    3056, 
    3057, 
    3058, 
    3059, 
    3060, 
    3061, 
    3062, 
    3063, 
    3064, 
    3065, 
    3066, 
    3067, 
    3068, 
    3069, 
    3070, 
    3071, 
    3072, 
    3073, 
    3074, 
    3075, 
    3076, 
    3077, 
    3078, 
    3079, 
    3080, 
    3081, 
    3082, 
    3083, 
    3084, 
    3085, 
    3086, 
    3087, 
    3088, 
    3089, 
    3090, 
    3091, 
    3092, 
    3093, 
    3094, 
    3095, 
    3096, 
    3097, 
    3098, 
    3099, 
    3100, 
    3101, 
    3102, 
    3103, 
    3104, 
    3105, 
    3106, 
    3107, 
    3108, 
    3109, 
    3110, 
    3111, 
    3112, 
    3113, 
    3114, 
    3115, 
    3116, 
    3117, 
    3118, 
    3119, 
    3120, 
    3121, 
    3122, 
    3123, 
    3124, 
    3125, 
    3126, 
    3127, 
    3128, 
    3129, 
    3130, 
    3131, 
    3132, 
    3133, 
    3134, 
    3135, 
    3136, 
    3137, 
    3138, 
    3139, 
    3140, 
    3141, 
    3142, 
    3143, 
    3144, 
    3145, 
    3146, 
    3147, 
    3148, 
    3149, 
    3150, 
    3151, 
    3152, 
    3153, 
    3154, 
    3155, 
    3156, 
    3157, 
    3158, 
    3159, 
    3160, 
    3161, 
    3162, 
    3163, 
    3164, 
    3165, 
    3166, 
    3167, 
    3168, 
    3169, 
    3170, 
    3171, 
    3172, 
    3173, 
    3174, 
    3175, 
    3176, 
    3177, 
    3178, 
    3179, 
    3180, 
    3181, 
    3182, 
    3183, 
    3184, 
    3185, 
    3186, 
    3187, 
    3188, 
    3189, 
    3190, 
    3191, 
    3192, 
    3193, 
    3194, 
    3195, 
    3196, 
    3197, 
    3198, 
    3199, 
    3200, 
    3201, 
    3202, 
    3203, 
    3204, 
    3205, 
    3206, 
    3207, 
    3208, 
    3209, 
    3210, 
    3211, 
    3212, 
    3213, 
    3214, 
    3215, 
    3216, 
    3217, 
    3218, 
    3219, 
    3220, 
    3221, 
    3223, 
    3224, 
    3225, 
    3226, 
    3227, 
    3228, 
    3229, 
    3230, 
    3231, 
    3232, 
    3233, 
    3234, 
    3235, 
    3236, 
    3237, 
    3238, 
    3239, 
    3240, 
    3241, 
    3242, 
    3243, 
    3244, 
    3245, 
    3246, 
    3247, 
    3248, 
    3249, 
    3250, 
    3251, 
    3252, 
    3253, 
    3254, 
    3255, 
    3256, 
    3257, 
    3258, 
    3259, 
    3260, 
    3261, 
    3262, 
    3263, 
    3264, 
    3265, 
    3266, 
    3267, 
    3268, 
    3269, 
    3270, 
    3271, 
    3272, 
    3273, 
    3274, 
    3275, 
    3276, 
    3277, 
    3278, 
    3279, 
    3280, 
    3281, 
    3282, 
    3283, 
    3284, 
    3285, 
    3286, 
    3287, 
    3288, 
    3289, 
    3290, 
    3291, 
    3292, 
    3293, 
    3294, 
    3295, 
    3296, 
    3297, 
    3298, 
    3299, 
    3300, 
    3301, 
    3302, 
    3303, 
    3304, 
    3305, 
    3306, 
    3307, 
    3308, 
    3309, 
    3310, 
    3311, 
    3312, 
    3313, 
    3314, 
    3315, 
    3316, 
    3317, 
    3318, 
    3319, 
    3320, 
    3321, 
    3322, 
    3323, 
    3324, 
    3325, 
    3326, 
    3327, 
    3328, 
    3329, 
    3330, 
    3331, 
    3332, 
    3333, 
    3334, 
    3335, 
    3336, 
    3337, 
    3338, 
    3339, 
    3340, 
    3341, 
    3342, 
    3343, 
    3344, 
    3345, 
    3346, 
    3347, 
    3348, 
    3349, 
    3350, 
    3351, 
    3352, 
    3353, 
    3354, 
    3355, 
    3356, 
    3357, 
    3358, 
    3359, 
    3360, 
    3361, 
    3362, 
    3363, 
    3364, 
    3365, 
    3366, 
    3367, 
    3368, 
    3369, 
    3370, 
    3371, 
    3372, 
    3373, 
    3374, 
    3375, 
    3376, 
    3377, 
    3378, 
    3379, 
    3380, 
    3381, 
    3382, 
    3383, 
    3384, 
    3385, 
    3386, 
    3387, 
    3388, 
    3389, 
    3390, 
    3391, 
    3392, 
    3393, 
    3394, 
    3395, 
    3396, 
    3397, 
    3398, 
    3399, 
    3400, 
    3401, 
    3402, 
    3403, 
    3404, 
    3405, 
    3406, 
    3407, 
    3408, 
    3409, 
    3410, 
    3411, 
    3412, 
    3413, 
    3414, 
    3415, 
    3416, 
    3417, 
    3418, 
    3419, 
    3420, 
    3421, 
    3422, 
    3423, 
    3424, 
    3425, 
    3426, 
    3427, 
    3428, 
    3429, 
    3430, 
    3431, 
    3432, 
    3433, 
    3434, 
    3435, 
    3436, 
    3437, 
    3438, 
    3439, 
    3440, 
    3441, 
    3442, 
    3443, 
    3444, 
    3445, 
    3447, 
    3448, 
    3449, 
    3450, 
    3451, 
    3452, 
    3453, 
    3454, 
    3455, 
    3456, 
    3457, 
    3458, 
    3459, 
    3460, 
    3461, 
    3462, 
    3463, 
    3464, 
    3465, 
    3466, 
    3467, 
    3468, 
    3469, 
    3470, 
    3471, 
    3472, 
    3473, 
    3474, 
    3475, 
    3476, 
    3477, 
    3478, 
    3479, 
    3480, 
    3481, 
    3482, 
    3483, 
    3484, 
    3485, 
    3486, 
    3487, 
    3488, 
    3489, 
    3490, 
    3491, 
    3492, 
    3493, 
    3494, 
    3495, 
    3496, 
    3497, 
    3498, 
    3499, 
    3500, 
    3501, 
    3502, 
    3503, 
    3504, 
    3505, 
    3506, 
    3507, 
    3508, 
    3509, 
    3510, 
    3511, 
    3512, 
    3513, 
    3514, 
    3515, 
    3516, 
    3517, 
    3518, 
    3519, 
    3520, 
    3521, 
    3522, 
    3523, 
    3524, 
    3525, 
    3526, 
    3527, 
    3528, 
    3529, 
    3530, 
    3531, 
    3532, 
    3533, 
    3534, 
    3535, 
    3536, 
    3537, 
    3538, 
    3539, 
    3540, 
    3541, 
    3542, 
    3543, 
    3544, 
    3545, 
    3546, 
    3547, 
    3548, 
    3549, 
    3550, 
    3551, 
    3552, 
    3553, 
    3554, 
    3555, 
    3556, 
    3557, 
    3558, 
    3559, 
    3560, 
    3561, 
    3562, 
    3563, 
    3564, 
    3565, 
    3566, 
    3567, 
    3568, 
    3569, 
    3570, 
    3571, 
    3572, 
    3573, 
    3574, 
    3575, 
    3576, 
    3577, 
    3578, 
    3579, 
    3580, 
    3581, 
    3582, 
    3583, 
    3584, 
    3585, 
    3586, 
    3587, 
    3588, 
    3589, 
    3590, 
    3591, 
    3592, 
    3593, 
    3594, 
    3595, 
    3596, 
    3597, 
    3598, 
    3599, 
    3600, 
    3601, 
    3602, 
    3603, 
    3604, 
    3605, 
    3606, 
    3607, 
    3608, 
    3609, 
    3610, 
    3611, 
    3612, 
    3613, 
    3614, 
    3615, 
    3616, 
    3617, 
    3618, 
    3619, 
    3620, 
    3621, 
    3622, 
    3623, 
    3624, 
    3625, 
    3626, 
    3627, 
    3628, 
    3629, 
    3630, 
    3631, 
    3632, 
    3633, 
    3634, 
    3635, 
    3636, 
    3637, 
    3638, 
    3639, 
    3640, 
    3641, 
    3642, 
    3643, 
    3644, 
    3645, 
    3646, 
    3647, 
    3648, 
    3649, 
    3650, 
    3651, 
    3652, 
    3653, 
    3654, 
    3655, 
    3656, 
    3657, 
    3658, 
    3659, 
    3660, 
    3661, 
    3662, 
    3663, 
    3664, 
    3665, 
    3666, 
    3667, 
    3668, 
    3669, 
    3670, 
    3672, 
    3673, 
    3674, 
    3675, 
    3676, 
    3677, 
    3678, 
    3679, 
    3680, 
    3681, 
    3682, 
    3683, 
    3684, 
    3685, 
    3686, 
    3687, 
    3688, 
    3689, 
    3690, 
    3691, 
    3692, 
    3693, 
    3694, 
    3695, 
    3696, 
    3697, 
    3698, 
    3699, 
    3700, 
    3701, 
    3702, 
    3703, 
    3704, 
    3705, 
    3706, 
    3707, 
    3708, 
    3709, 
    3710, 
    3711, 
    3712, 
    3713, 
    3714, 
    3715, 
    3716, 
    3717, 
    3718, 
    3719, 
    3720, 
    3721, 
    3722, 
    3723, 
    3724, 
    3725, 
    3726, 
    3727, 
    3728, 
    3729, 
    3730, 
    3731, 
    3732, 
    3733, 
    3734, 
    3735, 
    3736, 
    3737, 
    3738, 
    3739, 
    3740, 
    3741, 
    3742, 
    3743, 
    3744, 
    3745, 
    3746, 
    3747, 
    3748, 
    3749, 
    3750, 
    3751, 
    3752, 
    3753, 
    3754, 
    3755, 
    3756, 
    3757, 
    3758, 
    3759, 
    3760, 
    3761, 
    3762, 
    3763, 
    3764, 
    3765, 
    3766, 
    3767, 
    3768, 
    3769, 
    3770, 
    3771, 
    3772, 
    3773, 
    3774, 
    3775, 
    3776, 
    3777, 
    3778, 
    3779, 
    3780, 
    3781, 
    3782, 
    3783, 
    3784, 
    3785, 
    3786, 
    3787, 
    3788, 
    3789, 
    3790, 
    3791, 
    3792, 
    3793, 
    3794, 
    3795, 
    3796, 
    3797, 
    3798, 
    3799, 
    3800, 
    3801, 
    3802, 
    3803, 
    3804, 
    3805, 
    3806, 
    3807, 
    3808, 
    3809, 
    3810, 
    3811, 
    3812, 
    3813, 
    3814, 
    3815, 
    3816, 
    3817, 
    3818, 
    3819, 
    3820, 
    3821, 
    3822, 
    3823, 
    3824, 
    3825, 
    3826, 
    3827, 
    3828, 
    3829, 
    3830, 
    3831, 
    3832, 
    3833, 
    3834, 
    3835, 
    3836, 
    3837, 
    3838, 
    3839, 
    3840, 
    3841, 
    3842, 
    3843, 
    3844, 
    3845, 
    3846, 
    3847, 
    3848, 
    3849, 
    3850, 
    3851, 
    3852, 
    3853, 
    3854, 
    3855, 
    3856, 
    3857, 
    3858, 
    3859, 
    3860, 
    3861, 
    3862, 
    3863, 
    3864, 
    3865, 
    3866, 
    3867, 
    3868, 
    3869, 
    3870, 
    3871, 
    3872, 
    3873, 
    3874, 
    3875, 
    3876, 
    3877, 
    3878, 
    3879, 
    3880, 
    3881, 
    3882, 
    3883, 
    3884, 
    3885, 
    3886, 
    3887, 
    3888, 
    3889, 
    3890, 
    3891, 
    3892, 
    3893, 
    3894, 
    3896, 
    3897, 
    3898, 
    3899, 
    3900, 
    3901, 
    3902, 
    3903, 
    3904, 
    3905, 
    3906, 
    3907, 
    3908, 
    3909, 
    3910, 
    3911, 
    3912, 
    3913, 
    3914, 
    3915, 
    3916, 
    3917, 
    3918, 
    3919, 
    3920, 
    3921, 
    3922, 
    3923, 
    3924, 
    3925, 
    3926, 
    3927, 
    3928, 
    3929, 
    3930, 
    3931, 
    3932, 
    3933, 
    3934, 
    3935, 
    3936, 
    3937, 
    3938, 
    3939, 
    3940, 
    3941, 
    3942, 
    3943, 
    3944, 
    3945, 
    3946, 
    3947, 
    3948, 
    3949, 
    3950, 
    3951, 
    3952, 
    3953, 
    3954, 
    3955, 
    3956, 
    3957, 
    3958, 
    3959, 
    3960, 
    3961, 
    3962, 
    3963, 
    3964, 
    3965, 
    3966, 
    3967, 
    3968, 
    3969, 
    3970, 
    3971, 
    3972, 
    3973, 
    3974, 
    3975, 
    3976, 
    3977, 
    3978, 
    3979, 
    3980, 
    3981, 
    3982, 
    3983, 
    3984, 
    3985, 
    3986, 
    3987, 
    3988, 
    3989, 
    3990, 
    3991, 
    3992, 
    3993, 
    3994, 
    3997, 
    3998, 
    3999, 
    4000
  ], 
  "heads": [[3979, 0, 0]], 
  "attrs": {"mxnet_version": ["int", 10600]}
}